<?xml version="1.0"?>
<net name="runtime_gpu_graph" version="11">
	<layers>
		<layer id="1" name="input_ids" type="Input">
			<data shape="1,?" element_type="i64" execOrder="0" execTimeMcs="1" originalLayersNames="input_ids" outputLayouts="bfyx" outputPrecisions="I64" primitiveType="undef" runtimePrecision="I64" />
			<output>
				<port id="0" precision="I64">
					<dim>1</dim>
					<dim>-1</dim>
				</port>
			</output>
		</layer>
		<layer id="0" name="attention_mask" type="Input">
			<data shape="1,?" element_type="i64" execOrder="1" execTimeMcs="0" originalLayersNames="attention_mask" outputLayouts="bfyx" outputPrecisions="I64" primitiveType="undef" runtimePrecision="I64" />
			<output>
				<port id="0" precision="I64">
					<dim>1</dim>
					<dim>-1</dim>
				</port>
			</output>
		</layer>
		<layer id="2" name="parameter:input_ids_cldnn_input_preprocess" type="Reorder">
			<data execOrder="382" execTimeMcs="3" originalLayersNames="input_ids" outputLayouts="bfyx" outputPrecisions="I32" primitiveType="reorder_data__i64" runtimePrecision="I64" />
			<input>
				<port id="0" precision="I64">
					<dim>1</dim>
					<dim>-1</dim>
				</port>
			</input>
			<output>
				<port id="1" precision="I32">
					<dim>1</dim>
					<dim>-1</dim>
				</port>
				<port id="2" precision="I32">
					<dim>1</dim>
					<dim>-1</dim>
				</port>
				<port id="3" precision="I32">
					<dim>1</dim>
					<dim>-1</dim>
				</port>
			</output>
		</layer>
		<layer id="3" name="Shape_3" type="shape_of">
			<data execOrder="384" execTimeMcs="10" originalLayersNames="Shape_3" outputLayouts="bfyx" outputPrecisions="I32" primitiveType="shape_of_ref__i32" runtimePrecision="I32" />
			<input>
				<port id="0" precision="I32">
					<dim>1</dim>
					<dim>-1</dim>
				</port>
			</input>
			<output>
				<port id="1" precision="I32">
					<dim>2</dim>
				</port>
				<port id="2" precision="I32">
					<dim>2</dim>
				</port>
				<port id="3" precision="I32">
					<dim>2</dim>
				</port>
			</output>
		</layer>
		<layer id="4" name="Gather_52227" type="Gather">
			<data execOrder="390" execTimeMcs="2" originalLayersNames="Gather_52227,Slice_9/Clamp15236" outputLayouts="bfyx" outputPrecisions="I32" primitiveType="gather_ref__i32" runtimePrecision="I32" />
			<input>
				<port id="0" precision="I32">
					<dim>2</dim>
				</port>
			</input>
			<output>
				<port id="1" precision="I32">
					<dim>1</dim>
				</port>
			</output>
		</layer>
		<layer id="5" name="Slice_9/End" type="Concat">
			<data execOrder="395" execTimeMcs="4" originalLayersNames="Slice_9/End" outputLayouts="bfyx" outputPrecisions="I32" primitiveType="concatenation_gpu_simple_ref__i32" runtimePrecision="I32" />
			<input>
				<port id="0" precision="I32">
					<dim>1</dim>
				</port>
			</input>
			<output>
				<port id="1" precision="I32">
					<dim>2</dim>
				</port>
			</output>
		</layer>
		<layer id="6" name="Slice_9" type="StridedSlice">
			<data execOrder="397" execTimeMcs="4" originalLayersNames="Slice_9" outputLayouts="bfyx" outputPrecisions="I32" primitiveType="undef" runtimePrecision="I32" />
			<input>
				<port id="0" precision="I32">
					<dim>2</dim>
				</port>
			</input>
			<output>
				<port id="1" precision="I32">
					<dim>-1</dim>
					<dim>-1</dim>
				</port>
			</output>
		</layer>
		<layer id="7" name="Equal_19" type="Eltwise">
			<data execOrder="389" execTimeMcs="2" originalLayersNames="Equal_19" outputLayouts="bfyx" outputPrecisions="U8" primitiveType="generic_eltwise_ref__i32" runtimePrecision="I32" />
			<input>
				<port id="0" precision="I32">
					<dim>2</dim>
				</port>
			</input>
			<output>
				<port id="1" precision="U8">
					<dim>2</dim>
				</port>
			</output>
		</layer>
		<layer id="8" name="Where_20" type="select">
			<data execOrder="393" execTimeMcs="5" originalLayersNames="Where_20" outputLayouts="bfyx" outputPrecisions="I32" primitiveType="select_gpu_ref__u8" runtimePrecision="U8" />
			<input>
				<port id="0" precision="U8">
					<dim>2</dim>
				</port>
				<port id="1" precision="I32">
					<dim>2</dim>
				</port>
			</input>
			<output>
				<port id="2" precision="I32">
					<dim>2</dim>
				</port>
			</output>
		</layer>
		<layer id="9" name="Expand_21" type="broadcast">
			<data execOrder="398" execTimeMcs="2" originalLayersNames="Expand_21" outputLayouts="bfyx" outputPrecisions="I32" primitiveType="broadcast_gpu_ref__i32" runtimePrecision="I32" />
			<input>
				<port id="0" precision="I32">
					<dim>-1</dim>
					<dim>-1</dim>
				</port>
				<port id="1" precision="I32">
					<dim>2</dim>
				</port>
			</input>
			<output>
				<port id="2" precision="I32">
					<dim>-1</dim>
					<dim>-1</dim>
				</port>
			</output>
		</layer>
		<layer id="10" name="Gather_412251" type="Gather">
			<data execOrder="386" execTimeMcs="32" originalLayersNames="Gather_412251" outputLayouts="bfyx" outputPrecisions="FP32" primitiveType="gather_ref__f32" runtimePrecision="FP32" />
			<input>
				<port id="0" precision="I32">
					<dim>1</dim>
					<dim>-1</dim>
				</port>
			</input>
			<output>
				<port id="1" precision="FP32">
					<dim>1</dim>
					<dim>-1</dim>
					<dim>768</dim>
				</port>
			</output>
		</layer>
		<layer id="11" name="Equal_30" type="Eltwise">
			<data execOrder="387" execTimeMcs="3" originalLayersNames="Equal_30,Not_31" outputLayouts="bfyx" outputPrecisions="U8" primitiveType="generic_eltwise_ref__i32" runtimePrecision="I32" />
			<input>
				<port id="0" precision="I32">
					<dim>1</dim>
					<dim>-1</dim>
				</port>
			</input>
			<output>
				<port id="1" precision="U8">
					<dim>1</dim>
					<dim>-1</dim>
				</port>
			</output>
		</layer>
		<layer id="12" name="Cast_32" type="Reorder">
			<data execOrder="392" execTimeMcs="2" originalLayersNames="Cast_32" outputLayouts="bfyx" outputPrecisions="I32" primitiveType="reorder_data__i32" runtimePrecision="I32" />
			<input>
				<port id="0" precision="U8">
					<dim>1</dim>
					<dim>-1</dim>
				</port>
			</input>
			<output>
				<port id="1" precision="I32">
					<dim>1</dim>
					<dim>-1</dim>
				</port>
				<port id="2" precision="I32">
					<dim>1</dim>
					<dim>-1</dim>
				</port>
			</output>
		</layer>
		<layer id="13" name="CumSum_34" type="cum_sum">
			<data execOrder="394" execTimeMcs="16" originalLayersNames="CumSum_34" outputLayouts="bfyx" outputPrecisions="I32" primitiveType="cum_sum_ref__i32" runtimePrecision="I32" />
			<input>
				<port id="0" precision="I32">
					<dim>1</dim>
					<dim>-1</dim>
				</port>
			</input>
			<output>
				<port id="1" precision="I32">
					<dim>1</dim>
					<dim>-1</dim>
				</port>
			</output>
		</layer>
		<layer id="14" name="Mul_37" type="Eltwise">
			<data execOrder="396" execTimeMcs="3" originalLayersNames="Mul_37,Add_40" outputLayouts="bfyx" outputPrecisions="I32" primitiveType="generic_eltwise_ref__i32" runtimePrecision="I32" />
			<input>
				<port id="0" precision="I32">
					<dim>1</dim>
					<dim>-1</dim>
				</port>
				<port id="1" precision="I32">
					<dim>1</dim>
					<dim>-1</dim>
				</port>
			</input>
			<output>
				<port id="2" precision="I32">
					<dim>1</dim>
					<dim>-1</dim>
				</port>
			</output>
		</layer>
		<layer id="15" name="Gather_442153" type="Gather">
			<data execOrder="399" execTimeMcs="18" originalLayersNames="Gather_442153" outputLayouts="bfyx" outputPrecisions="FP32" primitiveType="gather_ref__f32" runtimePrecision="FP32" />
			<input>
				<port id="0" precision="I32">
					<dim>1</dim>
					<dim>-1</dim>
				</port>
			</input>
			<output>
				<port id="1" precision="FP32">
					<dim>1</dim>
					<dim>-1</dim>
					<dim>768</dim>
				</port>
			</output>
		</layer>
		<layer id="16" name="Gather_422063" type="Gather">
			<data execOrder="400" execTimeMcs="19" originalLayersNames="Gather_422063,Add_43,Add_45" outputLayouts="bfyx" outputPrecisions="FP32" primitiveType="gather_ref__f32" runtimePrecision="FP32" />
			<input>
				<port id="0" precision="I32">
					<dim>-1</dim>
					<dim>-1</dim>
				</port>
				<port id="1" precision="FP32">
					<dim>1</dim>
					<dim>-1</dim>
					<dim>768</dim>
				</port>
				<port id="2" precision="FP32">
					<dim>1</dim>
					<dim>-1</dim>
					<dim>768</dim>
				</port>
			</input>
			<output>
				<port id="3" precision="FP32">
					<dim>-1</dim>
					<dim>-1</dim>
					<dim>768</dim>
				</port>
			</output>
		</layer>
		<layer id="17" name="Div_54" type="MVN">
			<data execOrder="401" execTimeMcs="103" originalLayersNames="Div_54" outputLayouts="bfyx" outputPrecisions="FP32" primitiveType="mvn_gpu_ref__f32" runtimePrecision="FP32" />
			<input>
				<port id="0" precision="FP32">
					<dim>-1</dim>
					<dim>-1</dim>
					<dim>768</dim>
				</port>
			</input>
			<output>
				<port id="1" precision="FP32">
					<dim>-1</dim>
					<dim>-1</dim>
					<dim>768</dim>
				</port>
			</output>
		</layer>
		<layer id="18" name="Mul_55" type="Eltwise">
			<data execOrder="402" execTimeMcs="20" originalLayersNames="Mul_55,Add_56" outputLayouts="bfyx" outputPrecisions="FP32" primitiveType="generic_eltwise_ref__f32" runtimePrecision="FP32" />
			<input>
				<port id="0" precision="FP32">
					<dim>-1</dim>
					<dim>-1</dim>
					<dim>768</dim>
				</port>
			</input>
			<output>
				<port id="1" precision="FP32">
					<dim>-1</dim>
					<dim>-1</dim>
					<dim>768</dim>
				</port>
				<port id="2" precision="FP32">
					<dim>-1</dim>
					<dim>-1</dim>
					<dim>768</dim>
				</port>
				<port id="3" precision="FP32">
					<dim>-1</dim>
					<dim>-1</dim>
					<dim>768</dim>
				</port>
				<port id="4" precision="FP32">
					<dim>-1</dim>
					<dim>-1</dim>
					<dim>768</dim>
				</port>
			</output>
		</layer>
		<layer id="19" name="MatMul_57" type="FullyConnected">
			<data execOrder="405" execTimeMcs="19669" originalLayersNames="MatMul_57" outputLayouts="bfyx" outputPrecisions="FP32" primitiveType="fully_connected_gpu_bfyx_ref__f32" runtimePrecision="FP32" />
			<input>
				<port id="0" precision="FP32">
					<dim>-1</dim>
					<dim>-1</dim>
					<dim>768</dim>
				</port>
			</input>
			<output>
				<port id="1" precision="FP32">
					<dim>-1</dim>
					<dim>-1</dim>
					<dim>768</dim>
				</port>
			</output>
		</layer>
		<layer id="20" name="Add_58" type="Eltwise">
			<data execOrder="408" execTimeMcs="50" originalLayersNames="Add_58" outputLayouts="bfyx" outputPrecisions="FP32" primitiveType="generic_eltwise_ref__f32" runtimePrecision="FP32" />
			<input>
				<port id="0" precision="FP32">
					<dim>-1</dim>
					<dim>-1</dim>
					<dim>768</dim>
				</port>
			</input>
			<output>
				<port id="1" precision="FP32">
					<dim>-1</dim>
					<dim>-1</dim>
					<dim>768</dim>
				</port>
			</output>
		</layer>
		<layer id="21" name="Reshape_93" type="Reshape">
			<data execOrder="411" execTimeMcs="not_executed" originalLayersNames="Reshape_93" outputLayouts="bfyx" outputPrecisions="FP32" primitiveType="undef" runtimePrecision="FP32" />
			<input>
				<port id="0" precision="FP32">
					<dim>-1</dim>
					<dim>-1</dim>
					<dim>768</dim>
				</port>
			</input>
			<output>
				<port id="1" precision="FP32">
					<dim>-1</dim>
					<dim>-1</dim>
					<dim>12</dim>
					<dim>64</dim>
				</port>
			</output>
		</layer>
		<layer id="22" name="Transpose_94" type="Permute">
			<data execOrder="414" execTimeMcs="15" originalLayersNames="Transpose_94" outputLayouts="bfyx" outputPrecisions="FP32" primitiveType="permute_ref__f32" runtimePrecision="FP32" />
			<input>
				<port id="0" precision="FP32">
					<dim>-1</dim>
					<dim>-1</dim>
					<dim>12</dim>
					<dim>64</dim>
				</port>
			</input>
			<output>
				<port id="1" precision="FP32">
					<dim>-1</dim>
					<dim>12</dim>
					<dim>-1</dim>
					<dim>64</dim>
				</port>
			</output>
		</layer>
		<layer id="23" name="MatMul_59" type="FullyConnected">
			<data execOrder="404" execTimeMcs="19810" originalLayersNames="MatMul_59" outputLayouts="bfyx" outputPrecisions="FP32" primitiveType="fully_connected_gpu_bfyx_ref__f32" runtimePrecision="FP32" />
			<input>
				<port id="0" precision="FP32">
					<dim>-1</dim>
					<dim>-1</dim>
					<dim>768</dim>
				</port>
			</input>
			<output>
				<port id="1" precision="FP32">
					<dim>-1</dim>
					<dim>-1</dim>
					<dim>768</dim>
				</port>
			</output>
		</layer>
		<layer id="24" name="Add_60" type="Eltwise">
			<data execOrder="407" execTimeMcs="20" originalLayersNames="Add_60" outputLayouts="bfyx" outputPrecisions="FP32" primitiveType="generic_eltwise_ref__f32" runtimePrecision="FP32" />
			<input>
				<port id="0" precision="FP32">
					<dim>-1</dim>
					<dim>-1</dim>
					<dim>768</dim>
				</port>
			</input>
			<output>
				<port id="1" precision="FP32">
					<dim>-1</dim>
					<dim>-1</dim>
					<dim>768</dim>
				</port>
			</output>
		</layer>
		<layer id="25" name="Reshape_70" type="Reshape">
			<data execOrder="410" execTimeMcs="not_executed" originalLayersNames="Reshape_70" outputLayouts="bfyx" outputPrecisions="FP32" primitiveType="undef" runtimePrecision="FP32" />
			<input>
				<port id="0" precision="FP32">
					<dim>-1</dim>
					<dim>-1</dim>
					<dim>768</dim>
				</port>
			</input>
			<output>
				<port id="1" precision="FP32">
					<dim>-1</dim>
					<dim>-1</dim>
					<dim>12</dim>
					<dim>64</dim>
				</port>
			</output>
		</layer>
		<layer id="26" name="Transpose_95" type="Permute">
			<data execOrder="413" execTimeMcs="56" originalLayersNames="Transpose_95,Div_98_copy" outputLayouts="bfyx" outputPrecisions="FP32" primitiveType="permute_ref__f32" runtimePrecision="FP32" />
			<input>
				<port id="0" precision="FP32">
					<dim>-1</dim>
					<dim>-1</dim>
					<dim>12</dim>
					<dim>64</dim>
				</port>
			</input>
			<output>
				<port id="1" precision="FP32">
					<dim>-1</dim>
					<dim>12</dim>
					<dim>64</dim>
					<dim>-1</dim>
				</port>
			</output>
		</layer>
		<layer id="27" name="parameter:attention_mask_cldnn_input_preprocess" type="Reorder">
			<data execOrder="383" execTimeMcs="3" originalLayersNames="attention_mask" outputLayouts="bfyx" outputPrecisions="I32" primitiveType="reorder_data__i64" runtimePrecision="I64" />
			<input>
				<port id="0" precision="I64">
					<dim>1</dim>
					<dim>-1</dim>
				</port>
			</input>
			<output>
				<port id="1" precision="I32">
					<dim>1</dim>
					<dim>-1</dim>
				</port>
			</output>
		</layer>
		<layer id="28" name="Unsqueeze_23/Unsqueeze" type="Reshape">
			<data execOrder="385" execTimeMcs="not_executed" originalLayersNames="Unsqueeze_23/Unsqueeze" outputLayouts="bfyx" outputPrecisions="I32" primitiveType="undef" runtimePrecision="I32" />
			<input>
				<port id="0" precision="I32">
					<dim>1</dim>
					<dim>-1</dim>
				</port>
			</input>
			<output>
				<port id="1" precision="I32">
					<dim>1</dim>
					<dim>1</dim>
					<dim>1</dim>
					<dim>-1</dim>
				</port>
			</output>
		</layer>
		<layer id="29" name="Cast_24" type="Reorder">
			<data execOrder="388" execTimeMcs="3" originalLayersNames="Cast_24" outputLayouts="bfyx" outputPrecisions="FP32" primitiveType="reorder_data__f32" runtimePrecision="FP32" />
			<input>
				<port id="0" precision="I32">
					<dim>1</dim>
					<dim>1</dim>
					<dim>1</dim>
					<dim>-1</dim>
				</port>
			</input>
			<output>
				<port id="1" precision="FP32">
					<dim>1</dim>
					<dim>1</dim>
					<dim>1</dim>
					<dim>-1</dim>
				</port>
			</output>
		</layer>
		<layer id="30" name="Sub_26/neg_/Fused_Mul_" type="Eltwise">
			<data execOrder="391" execTimeMcs="3" originalLayersNames="Sub_26/neg_/Fused_Mul_,Sub_26/Fused_Add_" outputLayouts="bfyx" outputPrecisions="FP32" primitiveType="generic_eltwise_ref__f32" runtimePrecision="FP32" />
			<input>
				<port id="0" precision="FP32">
					<dim>1</dim>
					<dim>1</dim>
					<dim>1</dim>
					<dim>-1</dim>
				</port>
			</input>
			<output>
				<port id="1" precision="FP32">
					<dim>1</dim>
					<dim>1</dim>
					<dim>1</dim>
					<dim>-1</dim>
				</port>
				<port id="2" precision="FP32">
					<dim>1</dim>
					<dim>1</dim>
					<dim>1</dim>
					<dim>-1</dim>
				</port>
				<port id="3" precision="FP32">
					<dim>1</dim>
					<dim>1</dim>
					<dim>1</dim>
					<dim>-1</dim>
				</port>
				<port id="4" precision="FP32">
					<dim>1</dim>
					<dim>1</dim>
					<dim>1</dim>
					<dim>-1</dim>
				</port>
				<port id="5" precision="FP32">
					<dim>1</dim>
					<dim>1</dim>
					<dim>1</dim>
					<dim>-1</dim>
				</port>
				<port id="6" precision="FP32">
					<dim>1</dim>
					<dim>1</dim>
					<dim>1</dim>
					<dim>-1</dim>
				</port>
				<port id="7" precision="FP32">
					<dim>1</dim>
					<dim>1</dim>
					<dim>1</dim>
					<dim>-1</dim>
				</port>
				<port id="8" precision="FP32">
					<dim>1</dim>
					<dim>1</dim>
					<dim>1</dim>
					<dim>-1</dim>
				</port>
				<port id="9" precision="FP32">
					<dim>1</dim>
					<dim>1</dim>
					<dim>1</dim>
					<dim>-1</dim>
				</port>
				<port id="10" precision="FP32">
					<dim>1</dim>
					<dim>1</dim>
					<dim>1</dim>
					<dim>-1</dim>
				</port>
				<port id="11" precision="FP32">
					<dim>1</dim>
					<dim>1</dim>
					<dim>1</dim>
					<dim>-1</dim>
				</port>
				<port id="12" precision="FP32">
					<dim>1</dim>
					<dim>1</dim>
					<dim>1</dim>
					<dim>-1</dim>
				</port>
			</output>
		</layer>
		<layer id="31" name="MatMul_96" type="Gemm">
			<data execOrder="415" execTimeMcs="417" originalLayersNames="MatMul_96,Add_99" outputLayouts="bfyx" outputPrecisions="FP32" primitiveType="gemm_ref__f32" runtimePrecision="FP32" />
			<input>
				<port id="0" precision="FP32">
					<dim>-1</dim>
					<dim>12</dim>
					<dim>-1</dim>
					<dim>64</dim>
				</port>
				<port id="1" precision="FP32">
					<dim>-1</dim>
					<dim>12</dim>
					<dim>64</dim>
					<dim>-1</dim>
				</port>
				<port id="2" precision="FP32">
					<dim>1</dim>
					<dim>1</dim>
					<dim>1</dim>
					<dim>-1</dim>
				</port>
			</input>
			<output>
				<port id="3" precision="FP32">
					<dim>-1</dim>
					<dim>12</dim>
					<dim>-1</dim>
					<dim>-1</dim>
				</port>
				<port id="4" precision="FP32">
					<dim>-1</dim>
					<dim>12</dim>
					<dim>-1</dim>
					<dim>-1</dim>
				</port>
			</output>
		</layer>
		<layer id="32" name="Softmax_100/FlattenONNX_/input_shape" type="shape_of">
			<data execOrder="416" execTimeMcs="2" originalLayersNames="Softmax_100/FlattenONNX_/input_shape" outputLayouts="bfyx" outputPrecisions="I32" primitiveType="shape_of_ref__f32" runtimePrecision="FP32" />
			<input>
				<port id="0" precision="FP32">
					<dim>-1</dim>
					<dim>12</dim>
					<dim>-1</dim>
					<dim>-1</dim>
				</port>
			</input>
			<output>
				<port id="1" precision="I32">
					<dim>4</dim>
				</port>
				<port id="2" precision="I32">
					<dim>4</dim>
				</port>
			</output>
		</layer>
		<layer id="33" name="Softmax_100/FlattenONNX_/input_shape/Gather" type="Gather">
			<data execOrder="417" execTimeMcs="2" originalLayersNames="Softmax_100/FlattenONNX_/input_shape/Gather" outputLayouts="bfyx" outputPrecisions="I32" primitiveType="gather_ref__i32" runtimePrecision="I32" />
			<input>
				<port id="0" precision="I32">
					<dim>4</dim>
				</port>
			</input>
			<output>
				<port id="1" precision="I32">
					<dim>3</dim>
				</port>
			</output>
		</layer>
		<layer id="34" name="Softmax_100/FlattenONNX_/first_dims" type="Reduce">
			<data execOrder="418" execTimeMcs="1" originalLayersNames="Softmax_100/FlattenONNX_/first_dims" outputLayouts="bfyx" outputPrecisions="I32" primitiveType="reduce_ref__i32" runtimePrecision="I32" />
			<input>
				<port id="0" precision="I32">
					<dim>3</dim>
				</port>
			</input>
			<output>
				<port id="1" precision="I32">
					<dim>1</dim>
				</port>
			</output>
		</layer>
		<layer id="35" name="Softmax_100/FlattenONNX_/first_dims/shapes_concat" type="Concat">
			<data execOrder="419" execTimeMcs="4" originalLayersNames="Softmax_100/FlattenONNX_/first_dims/shapes_concat" outputLayouts="bfyx" outputPrecisions="I32" primitiveType="concatenation_gpu_simple_ref__i32" runtimePrecision="I32" />
			<input>
				<port id="0" precision="I32">
					<dim>1</dim>
				</port>
			</input>
			<output>
				<port id="1" precision="I32">
					<dim>2</dim>
				</port>
			</output>
		</layer>
		<layer id="36" name="Softmax_100/FlattenONNX_/Reshape" type="Reshape">
			<data execOrder="420" execTimeMcs="not_executed" originalLayersNames="Softmax_100/FlattenONNX_/Reshape" outputLayouts="bfyx" outputPrecisions="FP32" primitiveType="undef" runtimePrecision="FP32" />
			<input>
				<port id="0" precision="FP32">
					<dim>-1</dim>
					<dim>12</dim>
					<dim>-1</dim>
					<dim>-1</dim>
				</port>
				<port id="1" precision="I32">
					<dim>2</dim>
				</port>
			</input>
			<output>
				<port id="2" precision="FP32">
					<dim>-1</dim>
					<dim>-1</dim>
				</port>
			</output>
		</layer>
		<layer id="37" name="Softmax_100/Softmax_" type="SoftMax">
			<data execOrder="421" execTimeMcs="553" originalLayersNames="Softmax_100/Softmax_" outputLayouts="bfyx" outputPrecisions="FP32" primitiveType="softmax_gpu_ref__f32" runtimePrecision="FP32" />
			<input>
				<port id="0" precision="FP32">
					<dim>-1</dim>
					<dim>-1</dim>
				</port>
			</input>
			<output>
				<port id="1" precision="FP32">
					<dim>-1</dim>
					<dim>-1</dim>
				</port>
			</output>
		</layer>
		<layer id="38" name="Softmax_100" type="Reshape">
			<data execOrder="422" execTimeMcs="not_executed" originalLayersNames="Softmax_100" outputLayouts="bfyx" outputPrecisions="FP32" primitiveType="undef" runtimePrecision="FP32" />
			<input>
				<port id="0" precision="FP32">
					<dim>-1</dim>
					<dim>-1</dim>
				</port>
				<port id="1" precision="I32">
					<dim>4</dim>
				</port>
			</input>
			<output>
				<port id="2" precision="FP32">
					<dim>-1</dim>
					<dim>12</dim>
					<dim>-1</dim>
					<dim>-1</dim>
				</port>
			</output>
		</layer>
		<layer id="39" name="MatMul_71" type="FullyConnected">
			<data execOrder="403" execTimeMcs="19832" originalLayersNames="MatMul_71" outputLayouts="bfyx" outputPrecisions="FP32" primitiveType="fully_connected_gpu_bfyx_ref__f32" runtimePrecision="FP32" />
			<input>
				<port id="0" precision="FP32">
					<dim>-1</dim>
					<dim>-1</dim>
					<dim>768</dim>
				</port>
			</input>
			<output>
				<port id="1" precision="FP32">
					<dim>-1</dim>
					<dim>-1</dim>
					<dim>768</dim>
				</port>
			</output>
		</layer>
		<layer id="40" name="Add_72" type="Eltwise">
			<data execOrder="406" execTimeMcs="20" originalLayersNames="Add_72" outputLayouts="bfyx" outputPrecisions="FP32" primitiveType="generic_eltwise_ref__f32" runtimePrecision="FP32" />
			<input>
				<port id="0" precision="FP32">
					<dim>-1</dim>
					<dim>-1</dim>
					<dim>768</dim>
				</port>
			</input>
			<output>
				<port id="1" precision="FP32">
					<dim>-1</dim>
					<dim>-1</dim>
					<dim>768</dim>
				</port>
			</output>
		</layer>
		<layer id="41" name="Reshape_82" type="Reshape">
			<data execOrder="409" execTimeMcs="not_executed" originalLayersNames="Reshape_82" outputLayouts="bfyx" outputPrecisions="FP32" primitiveType="undef" runtimePrecision="FP32" />
			<input>
				<port id="0" precision="FP32">
					<dim>-1</dim>
					<dim>-1</dim>
					<dim>768</dim>
				</port>
			</input>
			<output>
				<port id="1" precision="FP32">
					<dim>-1</dim>
					<dim>-1</dim>
					<dim>12</dim>
					<dim>64</dim>
				</port>
			</output>
		</layer>
		<layer id="42" name="Transpose_83" type="Permute">
			<data execOrder="412" execTimeMcs="30" originalLayersNames="Transpose_83" outputLayouts="bfyx" outputPrecisions="FP32" primitiveType="permute_ref__f32" runtimePrecision="FP32" />
			<input>
				<port id="0" precision="FP32">
					<dim>-1</dim>
					<dim>-1</dim>
					<dim>12</dim>
					<dim>64</dim>
				</port>
			</input>
			<output>
				<port id="1" precision="FP32">
					<dim>-1</dim>
					<dim>12</dim>
					<dim>-1</dim>
					<dim>64</dim>
				</port>
			</output>
		</layer>
		<layer id="43" name="MatMul_101" type="Gemm">
			<data execOrder="423" execTimeMcs="483" originalLayersNames="MatMul_101" outputLayouts="bfyx" outputPrecisions="FP32" primitiveType="gemm_ref__f32" runtimePrecision="FP32" />
			<input>
				<port id="0" precision="FP32">
					<dim>-1</dim>
					<dim>12</dim>
					<dim>-1</dim>
					<dim>-1</dim>
				</port>
				<port id="1" precision="FP32">
					<dim>-1</dim>
					<dim>12</dim>
					<dim>-1</dim>
					<dim>64</dim>
				</port>
			</input>
			<output>
				<port id="2" precision="FP32">
					<dim>-1</dim>
					<dim>12</dim>
					<dim>-1</dim>
					<dim>64</dim>
				</port>
			</output>
		</layer>
		<layer id="44" name="Transpose_102" type="Permute">
			<data execOrder="424" execTimeMcs="31" originalLayersNames="Transpose_102" outputLayouts="bfyx" outputPrecisions="FP32" primitiveType="permute_ref__f32" runtimePrecision="FP32" />
			<input>
				<port id="0" precision="FP32">
					<dim>-1</dim>
					<dim>12</dim>
					<dim>-1</dim>
					<dim>64</dim>
				</port>
			</input>
			<output>
				<port id="1" precision="FP32">
					<dim>-1</dim>
					<dim>-1</dim>
					<dim>12</dim>
					<dim>64</dim>
				</port>
			</output>
		</layer>
		<layer id="45" name="Reshape_112" type="Reshape">
			<data execOrder="425" execTimeMcs="not_executed" originalLayersNames="Reshape_112" outputLayouts="bfyx" outputPrecisions="FP32" primitiveType="undef" runtimePrecision="FP32" />
			<input>
				<port id="0" precision="FP32">
					<dim>-1</dim>
					<dim>-1</dim>
					<dim>12</dim>
					<dim>64</dim>
				</port>
			</input>
			<output>
				<port id="1" precision="FP32">
					<dim>-1</dim>
					<dim>-1</dim>
					<dim>768</dim>
				</port>
			</output>
		</layer>
		<layer id="46" name="MatMul_113" type="FullyConnected">
			<data execOrder="426" execTimeMcs="19979" originalLayersNames="MatMul_113" outputLayouts="bfyx" outputPrecisions="FP32" primitiveType="fully_connected_gpu_bfyx_ref__f32" runtimePrecision="FP32" />
			<input>
				<port id="0" precision="FP32">
					<dim>-1</dim>
					<dim>-1</dim>
					<dim>768</dim>
				</port>
			</input>
			<output>
				<port id="1" precision="FP32">
					<dim>-1</dim>
					<dim>-1</dim>
					<dim>768</dim>
				</port>
			</output>
		</layer>
		<layer id="47" name="Add_114" type="Eltwise">
			<data execOrder="427" execTimeMcs="29" originalLayersNames="Add_114,Add_115" outputLayouts="bfyx" outputPrecisions="FP32" primitiveType="generic_eltwise_ref__f32" runtimePrecision="FP32" />
			<input>
				<port id="0" precision="FP32">
					<dim>-1</dim>
					<dim>-1</dim>
					<dim>768</dim>
				</port>
				<port id="1" precision="FP32">
					<dim>-1</dim>
					<dim>-1</dim>
					<dim>768</dim>
				</port>
			</input>
			<output>
				<port id="2" precision="FP32">
					<dim>-1</dim>
					<dim>-1</dim>
					<dim>768</dim>
				</port>
			</output>
		</layer>
		<layer id="48" name="Div_124" type="MVN">
			<data execOrder="428" execTimeMcs="101" originalLayersNames="Div_124" outputLayouts="bfyx" outputPrecisions="FP32" primitiveType="mvn_gpu_ref__f32" runtimePrecision="FP32" />
			<input>
				<port id="0" precision="FP32">
					<dim>-1</dim>
					<dim>-1</dim>
					<dim>768</dim>
				</port>
			</input>
			<output>
				<port id="1" precision="FP32">
					<dim>-1</dim>
					<dim>-1</dim>
					<dim>768</dim>
				</port>
			</output>
		</layer>
		<layer id="49" name="Mul_125" type="Eltwise">
			<data execOrder="429" execTimeMcs="20" originalLayersNames="Mul_125,Add_126" outputLayouts="bfyx" outputPrecisions="FP32" primitiveType="generic_eltwise_ref__f32" runtimePrecision="FP32" />
			<input>
				<port id="0" precision="FP32">
					<dim>-1</dim>
					<dim>-1</dim>
					<dim>768</dim>
				</port>
			</input>
			<output>
				<port id="1" precision="FP32">
					<dim>-1</dim>
					<dim>-1</dim>
					<dim>768</dim>
				</port>
				<port id="2" precision="FP32">
					<dim>-1</dim>
					<dim>-1</dim>
					<dim>768</dim>
				</port>
			</output>
		</layer>
		<layer id="50" name="MatMul_127" type="FullyConnected">
			<data execOrder="430" execTimeMcs="78333" originalLayersNames="MatMul_127" outputLayouts="bfyx" outputPrecisions="FP32" primitiveType="fully_connected_gpu_bfyx_ref__f32" runtimePrecision="FP32" />
			<input>
				<port id="0" precision="FP32">
					<dim>-1</dim>
					<dim>-1</dim>
					<dim>768</dim>
				</port>
			</input>
			<output>
				<port id="1" precision="FP32">
					<dim>-1</dim>
					<dim>-1</dim>
					<dim>3072</dim>
				</port>
			</output>
		</layer>
		<layer id="51" name="Add_128" type="Eltwise">
			<data execOrder="431" execTimeMcs="158" originalLayersNames="Add_128,Mul_136" outputLayouts="bfyx" outputPrecisions="FP32" primitiveType="generic_eltwise_ref__f32" runtimePrecision="FP32" />
			<input>
				<port id="0" precision="FP32">
					<dim>-1</dim>
					<dim>-1</dim>
					<dim>3072</dim>
				</port>
			</input>
			<output>
				<port id="1" precision="FP32">
					<dim>-1</dim>
					<dim>-1</dim>
					<dim>3072</dim>
				</port>
			</output>
		</layer>
		<layer id="52" name="MatMul_137" type="FullyConnected">
			<data execOrder="432" execTimeMcs="78084" originalLayersNames="MatMul_137" outputLayouts="bfyx" outputPrecisions="FP32" primitiveType="fully_connected_gpu_bfyx_ref__f32" runtimePrecision="FP32" />
			<input>
				<port id="0" precision="FP32">
					<dim>-1</dim>
					<dim>-1</dim>
					<dim>3072</dim>
				</port>
			</input>
			<output>
				<port id="1" precision="FP32">
					<dim>-1</dim>
					<dim>-1</dim>
					<dim>768</dim>
				</port>
			</output>
		</layer>
		<layer id="53" name="Add_138" type="Eltwise">
			<data execOrder="433" execTimeMcs="47" originalLayersNames="Add_138,Add_139" outputLayouts="bfyx" outputPrecisions="FP32" primitiveType="generic_eltwise_ref__f32" runtimePrecision="FP32" />
			<input>
				<port id="0" precision="FP32">
					<dim>-1</dim>
					<dim>-1</dim>
					<dim>768</dim>
				</port>
				<port id="1" precision="FP32">
					<dim>-1</dim>
					<dim>-1</dim>
					<dim>768</dim>
				</port>
			</input>
			<output>
				<port id="2" precision="FP32">
					<dim>-1</dim>
					<dim>-1</dim>
					<dim>768</dim>
				</port>
			</output>
		</layer>
		<layer id="54" name="Div_148" type="MVN">
			<data execOrder="434" execTimeMcs="104" originalLayersNames="Div_148" outputLayouts="bfyx" outputPrecisions="FP32" primitiveType="mvn_gpu_ref__f32" runtimePrecision="FP32" />
			<input>
				<port id="0" precision="FP32">
					<dim>-1</dim>
					<dim>-1</dim>
					<dim>768</dim>
				</port>
			</input>
			<output>
				<port id="1" precision="FP32">
					<dim>-1</dim>
					<dim>-1</dim>
					<dim>768</dim>
				</port>
			</output>
		</layer>
		<layer id="55" name="Mul_149" type="Eltwise">
			<data execOrder="435" execTimeMcs="21" originalLayersNames="Mul_149,Add_150" outputLayouts="bfyx" outputPrecisions="FP32" primitiveType="generic_eltwise_ref__f32" runtimePrecision="FP32" />
			<input>
				<port id="0" precision="FP32">
					<dim>-1</dim>
					<dim>-1</dim>
					<dim>768</dim>
				</port>
			</input>
			<output>
				<port id="1" precision="FP32">
					<dim>-1</dim>
					<dim>-1</dim>
					<dim>768</dim>
				</port>
				<port id="2" precision="FP32">
					<dim>-1</dim>
					<dim>-1</dim>
					<dim>768</dim>
				</port>
				<port id="3" precision="FP32">
					<dim>-1</dim>
					<dim>-1</dim>
					<dim>768</dim>
				</port>
				<port id="4" precision="FP32">
					<dim>-1</dim>
					<dim>-1</dim>
					<dim>768</dim>
				</port>
			</output>
		</layer>
		<layer id="56" name="MatMul_151" type="FullyConnected">
			<data execOrder="438" execTimeMcs="19662" originalLayersNames="MatMul_151" outputLayouts="bfyx" outputPrecisions="FP32" primitiveType="fully_connected_gpu_bfyx_ref__f32" runtimePrecision="FP32" />
			<input>
				<port id="0" precision="FP32">
					<dim>-1</dim>
					<dim>-1</dim>
					<dim>768</dim>
				</port>
			</input>
			<output>
				<port id="1" precision="FP32">
					<dim>-1</dim>
					<dim>-1</dim>
					<dim>768</dim>
				</port>
			</output>
		</layer>
		<layer id="57" name="Add_152" type="Eltwise">
			<data execOrder="441" execTimeMcs="49" originalLayersNames="Add_152" outputLayouts="bfyx" outputPrecisions="FP32" primitiveType="generic_eltwise_ref__f32" runtimePrecision="FP32" />
			<input>
				<port id="0" precision="FP32">
					<dim>-1</dim>
					<dim>-1</dim>
					<dim>768</dim>
				</port>
			</input>
			<output>
				<port id="1" precision="FP32">
					<dim>-1</dim>
					<dim>-1</dim>
					<dim>768</dim>
				</port>
			</output>
		</layer>
		<layer id="58" name="Reshape_187" type="Reshape">
			<data execOrder="444" execTimeMcs="not_executed" originalLayersNames="Reshape_187" outputLayouts="bfyx" outputPrecisions="FP32" primitiveType="undef" runtimePrecision="FP32" />
			<input>
				<port id="0" precision="FP32">
					<dim>-1</dim>
					<dim>-1</dim>
					<dim>768</dim>
				</port>
			</input>
			<output>
				<port id="1" precision="FP32">
					<dim>-1</dim>
					<dim>-1</dim>
					<dim>12</dim>
					<dim>64</dim>
				</port>
			</output>
		</layer>
		<layer id="59" name="Transpose_188" type="Permute">
			<data execOrder="447" execTimeMcs="14" originalLayersNames="Transpose_188" outputLayouts="bfyx" outputPrecisions="FP32" primitiveType="permute_ref__f32" runtimePrecision="FP32" />
			<input>
				<port id="0" precision="FP32">
					<dim>-1</dim>
					<dim>-1</dim>
					<dim>12</dim>
					<dim>64</dim>
				</port>
			</input>
			<output>
				<port id="1" precision="FP32">
					<dim>-1</dim>
					<dim>12</dim>
					<dim>-1</dim>
					<dim>64</dim>
				</port>
			</output>
		</layer>
		<layer id="60" name="MatMul_153" type="FullyConnected">
			<data execOrder="437" execTimeMcs="19708" originalLayersNames="MatMul_153" outputLayouts="bfyx" outputPrecisions="FP32" primitiveType="fully_connected_gpu_bfyx_ref__f32" runtimePrecision="FP32" />
			<input>
				<port id="0" precision="FP32">
					<dim>-1</dim>
					<dim>-1</dim>
					<dim>768</dim>
				</port>
			</input>
			<output>
				<port id="1" precision="FP32">
					<dim>-1</dim>
					<dim>-1</dim>
					<dim>768</dim>
				</port>
			</output>
		</layer>
		<layer id="61" name="Add_154" type="Eltwise">
			<data execOrder="440" execTimeMcs="20" originalLayersNames="Add_154" outputLayouts="bfyx" outputPrecisions="FP32" primitiveType="generic_eltwise_ref__f32" runtimePrecision="FP32" />
			<input>
				<port id="0" precision="FP32">
					<dim>-1</dim>
					<dim>-1</dim>
					<dim>768</dim>
				</port>
			</input>
			<output>
				<port id="1" precision="FP32">
					<dim>-1</dim>
					<dim>-1</dim>
					<dim>768</dim>
				</port>
			</output>
		</layer>
		<layer id="62" name="Reshape_164" type="Reshape">
			<data execOrder="443" execTimeMcs="not_executed" originalLayersNames="Reshape_164" outputLayouts="bfyx" outputPrecisions="FP32" primitiveType="undef" runtimePrecision="FP32" />
			<input>
				<port id="0" precision="FP32">
					<dim>-1</dim>
					<dim>-1</dim>
					<dim>768</dim>
				</port>
			</input>
			<output>
				<port id="1" precision="FP32">
					<dim>-1</dim>
					<dim>-1</dim>
					<dim>12</dim>
					<dim>64</dim>
				</port>
			</output>
		</layer>
		<layer id="63" name="Transpose_189" type="Permute">
			<data execOrder="446" execTimeMcs="43" originalLayersNames="Transpose_189,Div_192_copy" outputLayouts="bfyx" outputPrecisions="FP32" primitiveType="permute_ref__f32" runtimePrecision="FP32" />
			<input>
				<port id="0" precision="FP32">
					<dim>-1</dim>
					<dim>-1</dim>
					<dim>12</dim>
					<dim>64</dim>
				</port>
			</input>
			<output>
				<port id="1" precision="FP32">
					<dim>-1</dim>
					<dim>12</dim>
					<dim>64</dim>
					<dim>-1</dim>
				</port>
			</output>
		</layer>
		<layer id="64" name="MatMul_190" type="Gemm">
			<data execOrder="448" execTimeMcs="405" originalLayersNames="MatMul_190,Add_193" outputLayouts="bfyx" outputPrecisions="FP32" primitiveType="gemm_ref__f32" runtimePrecision="FP32" />
			<input>
				<port id="0" precision="FP32">
					<dim>-1</dim>
					<dim>12</dim>
					<dim>-1</dim>
					<dim>64</dim>
				</port>
				<port id="1" precision="FP32">
					<dim>-1</dim>
					<dim>12</dim>
					<dim>64</dim>
					<dim>-1</dim>
				</port>
				<port id="2" precision="FP32">
					<dim>1</dim>
					<dim>1</dim>
					<dim>1</dim>
					<dim>-1</dim>
				</port>
			</input>
			<output>
				<port id="3" precision="FP32">
					<dim>-1</dim>
					<dim>12</dim>
					<dim>-1</dim>
					<dim>-1</dim>
				</port>
				<port id="4" precision="FP32">
					<dim>-1</dim>
					<dim>12</dim>
					<dim>-1</dim>
					<dim>-1</dim>
				</port>
			</output>
		</layer>
		<layer id="65" name="Softmax_194/FlattenONNX_/input_shape" type="shape_of">
			<data execOrder="449" execTimeMcs="2" originalLayersNames="Softmax_194/FlattenONNX_/input_shape" outputLayouts="bfyx" outputPrecisions="I32" primitiveType="shape_of_ref__f32" runtimePrecision="FP32" />
			<input>
				<port id="0" precision="FP32">
					<dim>-1</dim>
					<dim>12</dim>
					<dim>-1</dim>
					<dim>-1</dim>
				</port>
			</input>
			<output>
				<port id="1" precision="I32">
					<dim>4</dim>
				</port>
				<port id="2" precision="I32">
					<dim>4</dim>
				</port>
			</output>
		</layer>
		<layer id="66" name="Softmax_194/FlattenONNX_/input_shape/Gather" type="Gather">
			<data execOrder="450" execTimeMcs="2" originalLayersNames="Softmax_194/FlattenONNX_/input_shape/Gather" outputLayouts="bfyx" outputPrecisions="I32" primitiveType="gather_ref__i32" runtimePrecision="I32" />
			<input>
				<port id="0" precision="I32">
					<dim>4</dim>
				</port>
			</input>
			<output>
				<port id="1" precision="I32">
					<dim>3</dim>
				</port>
			</output>
		</layer>
		<layer id="67" name="Softmax_194/FlattenONNX_/first_dims" type="Reduce">
			<data execOrder="451" execTimeMcs="1" originalLayersNames="Softmax_194/FlattenONNX_/first_dims" outputLayouts="bfyx" outputPrecisions="I32" primitiveType="reduce_ref__i32" runtimePrecision="I32" />
			<input>
				<port id="0" precision="I32">
					<dim>3</dim>
				</port>
			</input>
			<output>
				<port id="1" precision="I32">
					<dim>1</dim>
				</port>
			</output>
		</layer>
		<layer id="68" name="Softmax_194/FlattenONNX_/first_dims/shapes_concat" type="Concat">
			<data execOrder="452" execTimeMcs="3" originalLayersNames="Softmax_194/FlattenONNX_/first_dims/shapes_concat" outputLayouts="bfyx" outputPrecisions="I32" primitiveType="concatenation_gpu_simple_ref__i32" runtimePrecision="I32" />
			<input>
				<port id="0" precision="I32">
					<dim>1</dim>
				</port>
			</input>
			<output>
				<port id="1" precision="I32">
					<dim>2</dim>
				</port>
			</output>
		</layer>
		<layer id="69" name="Softmax_194/FlattenONNX_/Reshape" type="Reshape">
			<data execOrder="453" execTimeMcs="not_executed" originalLayersNames="Softmax_194/FlattenONNX_/Reshape" outputLayouts="bfyx" outputPrecisions="FP32" primitiveType="undef" runtimePrecision="FP32" />
			<input>
				<port id="0" precision="FP32">
					<dim>-1</dim>
					<dim>12</dim>
					<dim>-1</dim>
					<dim>-1</dim>
				</port>
				<port id="1" precision="I32">
					<dim>2</dim>
				</port>
			</input>
			<output>
				<port id="2" precision="FP32">
					<dim>-1</dim>
					<dim>-1</dim>
				</port>
			</output>
		</layer>
		<layer id="70" name="Softmax_194/Softmax_" type="SoftMax">
			<data execOrder="454" execTimeMcs="546" originalLayersNames="Softmax_194/Softmax_" outputLayouts="bfyx" outputPrecisions="FP32" primitiveType="softmax_gpu_ref__f32" runtimePrecision="FP32" />
			<input>
				<port id="0" precision="FP32">
					<dim>-1</dim>
					<dim>-1</dim>
				</port>
			</input>
			<output>
				<port id="1" precision="FP32">
					<dim>-1</dim>
					<dim>-1</dim>
				</port>
			</output>
		</layer>
		<layer id="71" name="Softmax_194" type="Reshape">
			<data execOrder="455" execTimeMcs="not_executed" originalLayersNames="Softmax_194" outputLayouts="bfyx" outputPrecisions="FP32" primitiveType="undef" runtimePrecision="FP32" />
			<input>
				<port id="0" precision="FP32">
					<dim>-1</dim>
					<dim>-1</dim>
				</port>
				<port id="1" precision="I32">
					<dim>4</dim>
				</port>
			</input>
			<output>
				<port id="2" precision="FP32">
					<dim>-1</dim>
					<dim>12</dim>
					<dim>-1</dim>
					<dim>-1</dim>
				</port>
			</output>
		</layer>
		<layer id="72" name="MatMul_165" type="FullyConnected">
			<data execOrder="436" execTimeMcs="19688" originalLayersNames="MatMul_165" outputLayouts="bfyx" outputPrecisions="FP32" primitiveType="fully_connected_gpu_bfyx_ref__f32" runtimePrecision="FP32" />
			<input>
				<port id="0" precision="FP32">
					<dim>-1</dim>
					<dim>-1</dim>
					<dim>768</dim>
				</port>
			</input>
			<output>
				<port id="1" precision="FP32">
					<dim>-1</dim>
					<dim>-1</dim>
					<dim>768</dim>
				</port>
			</output>
		</layer>
		<layer id="73" name="Add_166" type="Eltwise">
			<data execOrder="439" execTimeMcs="20" originalLayersNames="Add_166" outputLayouts="bfyx" outputPrecisions="FP32" primitiveType="generic_eltwise_ref__f32" runtimePrecision="FP32" />
			<input>
				<port id="0" precision="FP32">
					<dim>-1</dim>
					<dim>-1</dim>
					<dim>768</dim>
				</port>
			</input>
			<output>
				<port id="1" precision="FP32">
					<dim>-1</dim>
					<dim>-1</dim>
					<dim>768</dim>
				</port>
			</output>
		</layer>
		<layer id="74" name="Reshape_176" type="Reshape">
			<data execOrder="442" execTimeMcs="not_executed" originalLayersNames="Reshape_176" outputLayouts="bfyx" outputPrecisions="FP32" primitiveType="undef" runtimePrecision="FP32" />
			<input>
				<port id="0" precision="FP32">
					<dim>-1</dim>
					<dim>-1</dim>
					<dim>768</dim>
				</port>
			</input>
			<output>
				<port id="1" precision="FP32">
					<dim>-1</dim>
					<dim>-1</dim>
					<dim>12</dim>
					<dim>64</dim>
				</port>
			</output>
		</layer>
		<layer id="75" name="Transpose_177" type="Permute">
			<data execOrder="445" execTimeMcs="26" originalLayersNames="Transpose_177" outputLayouts="bfyx" outputPrecisions="FP32" primitiveType="permute_ref__f32" runtimePrecision="FP32" />
			<input>
				<port id="0" precision="FP32">
					<dim>-1</dim>
					<dim>-1</dim>
					<dim>12</dim>
					<dim>64</dim>
				</port>
			</input>
			<output>
				<port id="1" precision="FP32">
					<dim>-1</dim>
					<dim>12</dim>
					<dim>-1</dim>
					<dim>64</dim>
				</port>
			</output>
		</layer>
		<layer id="76" name="MatMul_195" type="Gemm">
			<data execOrder="456" execTimeMcs="446" originalLayersNames="MatMul_195" outputLayouts="bfyx" outputPrecisions="FP32" primitiveType="gemm_ref__f32" runtimePrecision="FP32" />
			<input>
				<port id="0" precision="FP32">
					<dim>-1</dim>
					<dim>12</dim>
					<dim>-1</dim>
					<dim>-1</dim>
				</port>
				<port id="1" precision="FP32">
					<dim>-1</dim>
					<dim>12</dim>
					<dim>-1</dim>
					<dim>64</dim>
				</port>
			</input>
			<output>
				<port id="2" precision="FP32">
					<dim>-1</dim>
					<dim>12</dim>
					<dim>-1</dim>
					<dim>64</dim>
				</port>
			</output>
		</layer>
		<layer id="77" name="Transpose_196" type="Permute">
			<data execOrder="457" execTimeMcs="36" originalLayersNames="Transpose_196" outputLayouts="bfyx" outputPrecisions="FP32" primitiveType="permute_ref__f32" runtimePrecision="FP32" />
			<input>
				<port id="0" precision="FP32">
					<dim>-1</dim>
					<dim>12</dim>
					<dim>-1</dim>
					<dim>64</dim>
				</port>
			</input>
			<output>
				<port id="1" precision="FP32">
					<dim>-1</dim>
					<dim>-1</dim>
					<dim>12</dim>
					<dim>64</dim>
				</port>
			</output>
		</layer>
		<layer id="78" name="Reshape_206" type="Reshape">
			<data execOrder="458" execTimeMcs="not_executed" originalLayersNames="Reshape_206" outputLayouts="bfyx" outputPrecisions="FP32" primitiveType="undef" runtimePrecision="FP32" />
			<input>
				<port id="0" precision="FP32">
					<dim>-1</dim>
					<dim>-1</dim>
					<dim>12</dim>
					<dim>64</dim>
				</port>
			</input>
			<output>
				<port id="1" precision="FP32">
					<dim>-1</dim>
					<dim>-1</dim>
					<dim>768</dim>
				</port>
			</output>
		</layer>
		<layer id="79" name="MatMul_207" type="FullyConnected">
			<data execOrder="459" execTimeMcs="19682" originalLayersNames="MatMul_207" outputLayouts="bfyx" outputPrecisions="FP32" primitiveType="fully_connected_gpu_bfyx_ref__f32" runtimePrecision="FP32" />
			<input>
				<port id="0" precision="FP32">
					<dim>-1</dim>
					<dim>-1</dim>
					<dim>768</dim>
				</port>
			</input>
			<output>
				<port id="1" precision="FP32">
					<dim>-1</dim>
					<dim>-1</dim>
					<dim>768</dim>
				</port>
			</output>
		</layer>
		<layer id="80" name="Add_208" type="Eltwise">
			<data execOrder="460" execTimeMcs="36" originalLayersNames="Add_208,Add_209" outputLayouts="bfyx" outputPrecisions="FP32" primitiveType="generic_eltwise_ref__f32" runtimePrecision="FP32" />
			<input>
				<port id="0" precision="FP32">
					<dim>-1</dim>
					<dim>-1</dim>
					<dim>768</dim>
				</port>
				<port id="1" precision="FP32">
					<dim>-1</dim>
					<dim>-1</dim>
					<dim>768</dim>
				</port>
			</input>
			<output>
				<port id="2" precision="FP32">
					<dim>-1</dim>
					<dim>-1</dim>
					<dim>768</dim>
				</port>
			</output>
		</layer>
		<layer id="81" name="Div_218" type="MVN">
			<data execOrder="461" execTimeMcs="106" originalLayersNames="Div_218" outputLayouts="bfyx" outputPrecisions="FP32" primitiveType="mvn_gpu_ref__f32" runtimePrecision="FP32" />
			<input>
				<port id="0" precision="FP32">
					<dim>-1</dim>
					<dim>-1</dim>
					<dim>768</dim>
				</port>
			</input>
			<output>
				<port id="1" precision="FP32">
					<dim>-1</dim>
					<dim>-1</dim>
					<dim>768</dim>
				</port>
			</output>
		</layer>
		<layer id="82" name="Mul_219" type="Eltwise">
			<data execOrder="462" execTimeMcs="21" originalLayersNames="Mul_219,Add_220" outputLayouts="bfyx" outputPrecisions="FP32" primitiveType="generic_eltwise_ref__f32" runtimePrecision="FP32" />
			<input>
				<port id="0" precision="FP32">
					<dim>-1</dim>
					<dim>-1</dim>
					<dim>768</dim>
				</port>
			</input>
			<output>
				<port id="1" precision="FP32">
					<dim>-1</dim>
					<dim>-1</dim>
					<dim>768</dim>
				</port>
				<port id="2" precision="FP32">
					<dim>-1</dim>
					<dim>-1</dim>
					<dim>768</dim>
				</port>
			</output>
		</layer>
		<layer id="83" name="MatMul_221" type="FullyConnected">
			<data execOrder="463" execTimeMcs="78198" originalLayersNames="MatMul_221" outputLayouts="bfyx" outputPrecisions="FP32" primitiveType="fully_connected_gpu_bfyx_ref__f32" runtimePrecision="FP32" />
			<input>
				<port id="0" precision="FP32">
					<dim>-1</dim>
					<dim>-1</dim>
					<dim>768</dim>
				</port>
			</input>
			<output>
				<port id="1" precision="FP32">
					<dim>-1</dim>
					<dim>-1</dim>
					<dim>3072</dim>
				</port>
			</output>
		</layer>
		<layer id="84" name="Add_222" type="Eltwise">
			<data execOrder="464" execTimeMcs="165" originalLayersNames="Add_222,Mul_230" outputLayouts="bfyx" outputPrecisions="FP32" primitiveType="generic_eltwise_ref__f32" runtimePrecision="FP32" />
			<input>
				<port id="0" precision="FP32">
					<dim>-1</dim>
					<dim>-1</dim>
					<dim>3072</dim>
				</port>
			</input>
			<output>
				<port id="1" precision="FP32">
					<dim>-1</dim>
					<dim>-1</dim>
					<dim>3072</dim>
				</port>
			</output>
		</layer>
		<layer id="85" name="MatMul_231" type="FullyConnected">
			<data execOrder="465" execTimeMcs="78111" originalLayersNames="MatMul_231" outputLayouts="bfyx" outputPrecisions="FP32" primitiveType="fully_connected_gpu_bfyx_ref__f32" runtimePrecision="FP32" />
			<input>
				<port id="0" precision="FP32">
					<dim>-1</dim>
					<dim>-1</dim>
					<dim>3072</dim>
				</port>
			</input>
			<output>
				<port id="1" precision="FP32">
					<dim>-1</dim>
					<dim>-1</dim>
					<dim>768</dim>
				</port>
			</output>
		</layer>
		<layer id="86" name="Add_232" type="Eltwise">
			<data execOrder="466" execTimeMcs="35" originalLayersNames="Add_232,Add_233" outputLayouts="bfyx" outputPrecisions="FP32" primitiveType="generic_eltwise_ref__f32" runtimePrecision="FP32" />
			<input>
				<port id="0" precision="FP32">
					<dim>-1</dim>
					<dim>-1</dim>
					<dim>768</dim>
				</port>
				<port id="1" precision="FP32">
					<dim>-1</dim>
					<dim>-1</dim>
					<dim>768</dim>
				</port>
			</input>
			<output>
				<port id="2" precision="FP32">
					<dim>-1</dim>
					<dim>-1</dim>
					<dim>768</dim>
				</port>
			</output>
		</layer>
		<layer id="87" name="Div_242" type="MVN">
			<data execOrder="467" execTimeMcs="101" originalLayersNames="Div_242" outputLayouts="bfyx" outputPrecisions="FP32" primitiveType="mvn_gpu_ref__f32" runtimePrecision="FP32" />
			<input>
				<port id="0" precision="FP32">
					<dim>-1</dim>
					<dim>-1</dim>
					<dim>768</dim>
				</port>
			</input>
			<output>
				<port id="1" precision="FP32">
					<dim>-1</dim>
					<dim>-1</dim>
					<dim>768</dim>
				</port>
			</output>
		</layer>
		<layer id="88" name="Mul_243" type="Eltwise">
			<data execOrder="468" execTimeMcs="20" originalLayersNames="Mul_243,Add_244" outputLayouts="bfyx" outputPrecisions="FP32" primitiveType="generic_eltwise_ref__f32" runtimePrecision="FP32" />
			<input>
				<port id="0" precision="FP32">
					<dim>-1</dim>
					<dim>-1</dim>
					<dim>768</dim>
				</port>
			</input>
			<output>
				<port id="1" precision="FP32">
					<dim>-1</dim>
					<dim>-1</dim>
					<dim>768</dim>
				</port>
				<port id="2" precision="FP32">
					<dim>-1</dim>
					<dim>-1</dim>
					<dim>768</dim>
				</port>
				<port id="3" precision="FP32">
					<dim>-1</dim>
					<dim>-1</dim>
					<dim>768</dim>
				</port>
				<port id="4" precision="FP32">
					<dim>-1</dim>
					<dim>-1</dim>
					<dim>768</dim>
				</port>
			</output>
		</layer>
		<layer id="89" name="MatMul_245" type="FullyConnected">
			<data execOrder="471" execTimeMcs="19635" originalLayersNames="MatMul_245" outputLayouts="bfyx" outputPrecisions="FP32" primitiveType="fully_connected_gpu_bfyx_ref__f32" runtimePrecision="FP32" />
			<input>
				<port id="0" precision="FP32">
					<dim>-1</dim>
					<dim>-1</dim>
					<dim>768</dim>
				</port>
			</input>
			<output>
				<port id="1" precision="FP32">
					<dim>-1</dim>
					<dim>-1</dim>
					<dim>768</dim>
				</port>
			</output>
		</layer>
		<layer id="90" name="Add_246" type="Eltwise">
			<data execOrder="474" execTimeMcs="54" originalLayersNames="Add_246" outputLayouts="bfyx" outputPrecisions="FP32" primitiveType="generic_eltwise_ref__f32" runtimePrecision="FP32" />
			<input>
				<port id="0" precision="FP32">
					<dim>-1</dim>
					<dim>-1</dim>
					<dim>768</dim>
				</port>
			</input>
			<output>
				<port id="1" precision="FP32">
					<dim>-1</dim>
					<dim>-1</dim>
					<dim>768</dim>
				</port>
			</output>
		</layer>
		<layer id="91" name="Reshape_281" type="Reshape">
			<data execOrder="477" execTimeMcs="not_executed" originalLayersNames="Reshape_281" outputLayouts="bfyx" outputPrecisions="FP32" primitiveType="undef" runtimePrecision="FP32" />
			<input>
				<port id="0" precision="FP32">
					<dim>-1</dim>
					<dim>-1</dim>
					<dim>768</dim>
				</port>
			</input>
			<output>
				<port id="1" precision="FP32">
					<dim>-1</dim>
					<dim>-1</dim>
					<dim>12</dim>
					<dim>64</dim>
				</port>
			</output>
		</layer>
		<layer id="92" name="Transpose_282" type="Permute">
			<data execOrder="480" execTimeMcs="15" originalLayersNames="Transpose_282" outputLayouts="bfyx" outputPrecisions="FP32" primitiveType="permute_ref__f32" runtimePrecision="FP32" />
			<input>
				<port id="0" precision="FP32">
					<dim>-1</dim>
					<dim>-1</dim>
					<dim>12</dim>
					<dim>64</dim>
				</port>
			</input>
			<output>
				<port id="1" precision="FP32">
					<dim>-1</dim>
					<dim>12</dim>
					<dim>-1</dim>
					<dim>64</dim>
				</port>
			</output>
		</layer>
		<layer id="93" name="MatMul_247" type="FullyConnected">
			<data execOrder="470" execTimeMcs="19591" originalLayersNames="MatMul_247" outputLayouts="bfyx" outputPrecisions="FP32" primitiveType="fully_connected_gpu_bfyx_ref__f32" runtimePrecision="FP32" />
			<input>
				<port id="0" precision="FP32">
					<dim>-1</dim>
					<dim>-1</dim>
					<dim>768</dim>
				</port>
			</input>
			<output>
				<port id="1" precision="FP32">
					<dim>-1</dim>
					<dim>-1</dim>
					<dim>768</dim>
				</port>
			</output>
		</layer>
		<layer id="94" name="Add_248" type="Eltwise">
			<data execOrder="473" execTimeMcs="20" originalLayersNames="Add_248" outputLayouts="bfyx" outputPrecisions="FP32" primitiveType="generic_eltwise_ref__f32" runtimePrecision="FP32" />
			<input>
				<port id="0" precision="FP32">
					<dim>-1</dim>
					<dim>-1</dim>
					<dim>768</dim>
				</port>
			</input>
			<output>
				<port id="1" precision="FP32">
					<dim>-1</dim>
					<dim>-1</dim>
					<dim>768</dim>
				</port>
			</output>
		</layer>
		<layer id="95" name="Reshape_258" type="Reshape">
			<data execOrder="476" execTimeMcs="not_executed" originalLayersNames="Reshape_258" outputLayouts="bfyx" outputPrecisions="FP32" primitiveType="undef" runtimePrecision="FP32" />
			<input>
				<port id="0" precision="FP32">
					<dim>-1</dim>
					<dim>-1</dim>
					<dim>768</dim>
				</port>
			</input>
			<output>
				<port id="1" precision="FP32">
					<dim>-1</dim>
					<dim>-1</dim>
					<dim>12</dim>
					<dim>64</dim>
				</port>
			</output>
		</layer>
		<layer id="96" name="Transpose_283" type="Permute">
			<data execOrder="479" execTimeMcs="46" originalLayersNames="Transpose_283,Div_286_copy" outputLayouts="bfyx" outputPrecisions="FP32" primitiveType="permute_ref__f32" runtimePrecision="FP32" />
			<input>
				<port id="0" precision="FP32">
					<dim>-1</dim>
					<dim>-1</dim>
					<dim>12</dim>
					<dim>64</dim>
				</port>
			</input>
			<output>
				<port id="1" precision="FP32">
					<dim>-1</dim>
					<dim>12</dim>
					<dim>64</dim>
					<dim>-1</dim>
				</port>
			</output>
		</layer>
		<layer id="97" name="MatMul_284" type="Gemm">
			<data execOrder="481" execTimeMcs="395" originalLayersNames="MatMul_284,Add_287" outputLayouts="bfyx" outputPrecisions="FP32" primitiveType="gemm_ref__f32" runtimePrecision="FP32" />
			<input>
				<port id="0" precision="FP32">
					<dim>-1</dim>
					<dim>12</dim>
					<dim>-1</dim>
					<dim>64</dim>
				</port>
				<port id="1" precision="FP32">
					<dim>-1</dim>
					<dim>12</dim>
					<dim>64</dim>
					<dim>-1</dim>
				</port>
				<port id="2" precision="FP32">
					<dim>1</dim>
					<dim>1</dim>
					<dim>1</dim>
					<dim>-1</dim>
				</port>
			</input>
			<output>
				<port id="3" precision="FP32">
					<dim>-1</dim>
					<dim>12</dim>
					<dim>-1</dim>
					<dim>-1</dim>
				</port>
				<port id="4" precision="FP32">
					<dim>-1</dim>
					<dim>12</dim>
					<dim>-1</dim>
					<dim>-1</dim>
				</port>
			</output>
		</layer>
		<layer id="98" name="Softmax_288/FlattenONNX_/input_shape" type="shape_of">
			<data execOrder="482" execTimeMcs="2" originalLayersNames="Softmax_288/FlattenONNX_/input_shape" outputLayouts="bfyx" outputPrecisions="I32" primitiveType="shape_of_ref__f32" runtimePrecision="FP32" />
			<input>
				<port id="0" precision="FP32">
					<dim>-1</dim>
					<dim>12</dim>
					<dim>-1</dim>
					<dim>-1</dim>
				</port>
			</input>
			<output>
				<port id="1" precision="I32">
					<dim>4</dim>
				</port>
				<port id="2" precision="I32">
					<dim>4</dim>
				</port>
			</output>
		</layer>
		<layer id="99" name="Softmax_288/FlattenONNX_/input_shape/Gather" type="Gather">
			<data execOrder="483" execTimeMcs="2" originalLayersNames="Softmax_288/FlattenONNX_/input_shape/Gather" outputLayouts="bfyx" outputPrecisions="I32" primitiveType="gather_ref__i32" runtimePrecision="I32" />
			<input>
				<port id="0" precision="I32">
					<dim>4</dim>
				</port>
			</input>
			<output>
				<port id="1" precision="I32">
					<dim>3</dim>
				</port>
			</output>
		</layer>
		<layer id="100" name="Softmax_288/FlattenONNX_/first_dims" type="Reduce">
			<data execOrder="484" execTimeMcs="1" originalLayersNames="Softmax_288/FlattenONNX_/first_dims" outputLayouts="bfyx" outputPrecisions="I32" primitiveType="reduce_ref__i32" runtimePrecision="I32" />
			<input>
				<port id="0" precision="I32">
					<dim>3</dim>
				</port>
			</input>
			<output>
				<port id="1" precision="I32">
					<dim>1</dim>
				</port>
			</output>
		</layer>
		<layer id="101" name="Softmax_288/FlattenONNX_/first_dims/shapes_concat" type="Concat">
			<data execOrder="485" execTimeMcs="3" originalLayersNames="Softmax_288/FlattenONNX_/first_dims/shapes_concat" outputLayouts="bfyx" outputPrecisions="I32" primitiveType="concatenation_gpu_simple_ref__i32" runtimePrecision="I32" />
			<input>
				<port id="0" precision="I32">
					<dim>1</dim>
				</port>
			</input>
			<output>
				<port id="1" precision="I32">
					<dim>2</dim>
				</port>
			</output>
		</layer>
		<layer id="102" name="Softmax_288/FlattenONNX_/Reshape" type="Reshape">
			<data execOrder="486" execTimeMcs="not_executed" originalLayersNames="Softmax_288/FlattenONNX_/Reshape" outputLayouts="bfyx" outputPrecisions="FP32" primitiveType="undef" runtimePrecision="FP32" />
			<input>
				<port id="0" precision="FP32">
					<dim>-1</dim>
					<dim>12</dim>
					<dim>-1</dim>
					<dim>-1</dim>
				</port>
				<port id="1" precision="I32">
					<dim>2</dim>
				</port>
			</input>
			<output>
				<port id="2" precision="FP32">
					<dim>-1</dim>
					<dim>-1</dim>
				</port>
			</output>
		</layer>
		<layer id="103" name="Softmax_288/Softmax_" type="SoftMax">
			<data execOrder="487" execTimeMcs="542" originalLayersNames="Softmax_288/Softmax_" outputLayouts="bfyx" outputPrecisions="FP32" primitiveType="softmax_gpu_ref__f32" runtimePrecision="FP32" />
			<input>
				<port id="0" precision="FP32">
					<dim>-1</dim>
					<dim>-1</dim>
				</port>
			</input>
			<output>
				<port id="1" precision="FP32">
					<dim>-1</dim>
					<dim>-1</dim>
				</port>
			</output>
		</layer>
		<layer id="104" name="Softmax_288" type="Reshape">
			<data execOrder="488" execTimeMcs="not_executed" originalLayersNames="Softmax_288" outputLayouts="bfyx" outputPrecisions="FP32" primitiveType="undef" runtimePrecision="FP32" />
			<input>
				<port id="0" precision="FP32">
					<dim>-1</dim>
					<dim>-1</dim>
				</port>
				<port id="1" precision="I32">
					<dim>4</dim>
				</port>
			</input>
			<output>
				<port id="2" precision="FP32">
					<dim>-1</dim>
					<dim>12</dim>
					<dim>-1</dim>
					<dim>-1</dim>
				</port>
			</output>
		</layer>
		<layer id="105" name="MatMul_259" type="FullyConnected">
			<data execOrder="469" execTimeMcs="19581" originalLayersNames="MatMul_259" outputLayouts="bfyx" outputPrecisions="FP32" primitiveType="fully_connected_gpu_bfyx_ref__f32" runtimePrecision="FP32" />
			<input>
				<port id="0" precision="FP32">
					<dim>-1</dim>
					<dim>-1</dim>
					<dim>768</dim>
				</port>
			</input>
			<output>
				<port id="1" precision="FP32">
					<dim>-1</dim>
					<dim>-1</dim>
					<dim>768</dim>
				</port>
			</output>
		</layer>
		<layer id="106" name="Add_260" type="Eltwise">
			<data execOrder="472" execTimeMcs="20" originalLayersNames="Add_260" outputLayouts="bfyx" outputPrecisions="FP32" primitiveType="generic_eltwise_ref__f32" runtimePrecision="FP32" />
			<input>
				<port id="0" precision="FP32">
					<dim>-1</dim>
					<dim>-1</dim>
					<dim>768</dim>
				</port>
			</input>
			<output>
				<port id="1" precision="FP32">
					<dim>-1</dim>
					<dim>-1</dim>
					<dim>768</dim>
				</port>
			</output>
		</layer>
		<layer id="107" name="Reshape_270" type="Reshape">
			<data execOrder="475" execTimeMcs="not_executed" originalLayersNames="Reshape_270" outputLayouts="bfyx" outputPrecisions="FP32" primitiveType="undef" runtimePrecision="FP32" />
			<input>
				<port id="0" precision="FP32">
					<dim>-1</dim>
					<dim>-1</dim>
					<dim>768</dim>
				</port>
			</input>
			<output>
				<port id="1" precision="FP32">
					<dim>-1</dim>
					<dim>-1</dim>
					<dim>12</dim>
					<dim>64</dim>
				</port>
			</output>
		</layer>
		<layer id="108" name="Transpose_271" type="Permute">
			<data execOrder="478" execTimeMcs="27" originalLayersNames="Transpose_271" outputLayouts="bfyx" outputPrecisions="FP32" primitiveType="permute_ref__f32" runtimePrecision="FP32" />
			<input>
				<port id="0" precision="FP32">
					<dim>-1</dim>
					<dim>-1</dim>
					<dim>12</dim>
					<dim>64</dim>
				</port>
			</input>
			<output>
				<port id="1" precision="FP32">
					<dim>-1</dim>
					<dim>12</dim>
					<dim>-1</dim>
					<dim>64</dim>
				</port>
			</output>
		</layer>
		<layer id="109" name="MatMul_289" type="Gemm">
			<data execOrder="489" execTimeMcs="454" originalLayersNames="MatMul_289" outputLayouts="bfyx" outputPrecisions="FP32" primitiveType="gemm_ref__f32" runtimePrecision="FP32" />
			<input>
				<port id="0" precision="FP32">
					<dim>-1</dim>
					<dim>12</dim>
					<dim>-1</dim>
					<dim>-1</dim>
				</port>
				<port id="1" precision="FP32">
					<dim>-1</dim>
					<dim>12</dim>
					<dim>-1</dim>
					<dim>64</dim>
				</port>
			</input>
			<output>
				<port id="2" precision="FP32">
					<dim>-1</dim>
					<dim>12</dim>
					<dim>-1</dim>
					<dim>64</dim>
				</port>
			</output>
		</layer>
		<layer id="110" name="Transpose_290" type="Permute">
			<data execOrder="490" execTimeMcs="31" originalLayersNames="Transpose_290" outputLayouts="bfyx" outputPrecisions="FP32" primitiveType="permute_ref__f32" runtimePrecision="FP32" />
			<input>
				<port id="0" precision="FP32">
					<dim>-1</dim>
					<dim>12</dim>
					<dim>-1</dim>
					<dim>64</dim>
				</port>
			</input>
			<output>
				<port id="1" precision="FP32">
					<dim>-1</dim>
					<dim>-1</dim>
					<dim>12</dim>
					<dim>64</dim>
				</port>
			</output>
		</layer>
		<layer id="111" name="Reshape_300" type="Reshape">
			<data execOrder="491" execTimeMcs="not_executed" originalLayersNames="Reshape_300" outputLayouts="bfyx" outputPrecisions="FP32" primitiveType="undef" runtimePrecision="FP32" />
			<input>
				<port id="0" precision="FP32">
					<dim>-1</dim>
					<dim>-1</dim>
					<dim>12</dim>
					<dim>64</dim>
				</port>
			</input>
			<output>
				<port id="1" precision="FP32">
					<dim>-1</dim>
					<dim>-1</dim>
					<dim>768</dim>
				</port>
			</output>
		</layer>
		<layer id="112" name="MatMul_301" type="FullyConnected">
			<data execOrder="492" execTimeMcs="19701" originalLayersNames="MatMul_301" outputLayouts="bfyx" outputPrecisions="FP32" primitiveType="fully_connected_gpu_bfyx_ref__f32" runtimePrecision="FP32" />
			<input>
				<port id="0" precision="FP32">
					<dim>-1</dim>
					<dim>-1</dim>
					<dim>768</dim>
				</port>
			</input>
			<output>
				<port id="1" precision="FP32">
					<dim>-1</dim>
					<dim>-1</dim>
					<dim>768</dim>
				</port>
			</output>
		</layer>
		<layer id="113" name="Add_302" type="Eltwise">
			<data execOrder="493" execTimeMcs="35" originalLayersNames="Add_302,Add_303" outputLayouts="bfyx" outputPrecisions="FP32" primitiveType="generic_eltwise_ref__f32" runtimePrecision="FP32" />
			<input>
				<port id="0" precision="FP32">
					<dim>-1</dim>
					<dim>-1</dim>
					<dim>768</dim>
				</port>
				<port id="1" precision="FP32">
					<dim>-1</dim>
					<dim>-1</dim>
					<dim>768</dim>
				</port>
			</input>
			<output>
				<port id="2" precision="FP32">
					<dim>-1</dim>
					<dim>-1</dim>
					<dim>768</dim>
				</port>
			</output>
		</layer>
		<layer id="114" name="Div_312" type="MVN">
			<data execOrder="494" execTimeMcs="101" originalLayersNames="Div_312" outputLayouts="bfyx" outputPrecisions="FP32" primitiveType="mvn_gpu_ref__f32" runtimePrecision="FP32" />
			<input>
				<port id="0" precision="FP32">
					<dim>-1</dim>
					<dim>-1</dim>
					<dim>768</dim>
				</port>
			</input>
			<output>
				<port id="1" precision="FP32">
					<dim>-1</dim>
					<dim>-1</dim>
					<dim>768</dim>
				</port>
			</output>
		</layer>
		<layer id="115" name="Mul_313" type="Eltwise">
			<data execOrder="495" execTimeMcs="20" originalLayersNames="Mul_313,Add_314" outputLayouts="bfyx" outputPrecisions="FP32" primitiveType="generic_eltwise_ref__f32" runtimePrecision="FP32" />
			<input>
				<port id="0" precision="FP32">
					<dim>-1</dim>
					<dim>-1</dim>
					<dim>768</dim>
				</port>
			</input>
			<output>
				<port id="1" precision="FP32">
					<dim>-1</dim>
					<dim>-1</dim>
					<dim>768</dim>
				</port>
				<port id="2" precision="FP32">
					<dim>-1</dim>
					<dim>-1</dim>
					<dim>768</dim>
				</port>
			</output>
		</layer>
		<layer id="116" name="MatMul_315" type="FullyConnected">
			<data execOrder="496" execTimeMcs="78504" originalLayersNames="MatMul_315" outputLayouts="bfyx" outputPrecisions="FP32" primitiveType="fully_connected_gpu_bfyx_ref__f32" runtimePrecision="FP32" />
			<input>
				<port id="0" precision="FP32">
					<dim>-1</dim>
					<dim>-1</dim>
					<dim>768</dim>
				</port>
			</input>
			<output>
				<port id="1" precision="FP32">
					<dim>-1</dim>
					<dim>-1</dim>
					<dim>3072</dim>
				</port>
			</output>
		</layer>
		<layer id="117" name="Add_316" type="Eltwise">
			<data execOrder="497" execTimeMcs="161" originalLayersNames="Add_316,Mul_324" outputLayouts="bfyx" outputPrecisions="FP32" primitiveType="generic_eltwise_ref__f32" runtimePrecision="FP32" />
			<input>
				<port id="0" precision="FP32">
					<dim>-1</dim>
					<dim>-1</dim>
					<dim>3072</dim>
				</port>
			</input>
			<output>
				<port id="1" precision="FP32">
					<dim>-1</dim>
					<dim>-1</dim>
					<dim>3072</dim>
				</port>
			</output>
		</layer>
		<layer id="118" name="MatMul_325" type="FullyConnected">
			<data execOrder="498" execTimeMcs="77965" originalLayersNames="MatMul_325" outputLayouts="bfyx" outputPrecisions="FP32" primitiveType="fully_connected_gpu_bfyx_ref__f32" runtimePrecision="FP32" />
			<input>
				<port id="0" precision="FP32">
					<dim>-1</dim>
					<dim>-1</dim>
					<dim>3072</dim>
				</port>
			</input>
			<output>
				<port id="1" precision="FP32">
					<dim>-1</dim>
					<dim>-1</dim>
					<dim>768</dim>
				</port>
			</output>
		</layer>
		<layer id="119" name="Add_326" type="Eltwise">
			<data execOrder="499" execTimeMcs="49" originalLayersNames="Add_326,Add_327" outputLayouts="bfyx" outputPrecisions="FP32" primitiveType="generic_eltwise_ref__f32" runtimePrecision="FP32" />
			<input>
				<port id="0" precision="FP32">
					<dim>-1</dim>
					<dim>-1</dim>
					<dim>768</dim>
				</port>
				<port id="1" precision="FP32">
					<dim>-1</dim>
					<dim>-1</dim>
					<dim>768</dim>
				</port>
			</input>
			<output>
				<port id="2" precision="FP32">
					<dim>-1</dim>
					<dim>-1</dim>
					<dim>768</dim>
				</port>
			</output>
		</layer>
		<layer id="120" name="Div_336" type="MVN">
			<data execOrder="500" execTimeMcs="100" originalLayersNames="Div_336" outputLayouts="bfyx" outputPrecisions="FP32" primitiveType="mvn_gpu_ref__f32" runtimePrecision="FP32" />
			<input>
				<port id="0" precision="FP32">
					<dim>-1</dim>
					<dim>-1</dim>
					<dim>768</dim>
				</port>
			</input>
			<output>
				<port id="1" precision="FP32">
					<dim>-1</dim>
					<dim>-1</dim>
					<dim>768</dim>
				</port>
			</output>
		</layer>
		<layer id="121" name="Mul_337" type="Eltwise">
			<data execOrder="501" execTimeMcs="21" originalLayersNames="Mul_337,Add_338" outputLayouts="bfyx" outputPrecisions="FP32" primitiveType="generic_eltwise_ref__f32" runtimePrecision="FP32" />
			<input>
				<port id="0" precision="FP32">
					<dim>-1</dim>
					<dim>-1</dim>
					<dim>768</dim>
				</port>
			</input>
			<output>
				<port id="1" precision="FP32">
					<dim>-1</dim>
					<dim>-1</dim>
					<dim>768</dim>
				</port>
				<port id="2" precision="FP32">
					<dim>-1</dim>
					<dim>-1</dim>
					<dim>768</dim>
				</port>
				<port id="3" precision="FP32">
					<dim>-1</dim>
					<dim>-1</dim>
					<dim>768</dim>
				</port>
				<port id="4" precision="FP32">
					<dim>-1</dim>
					<dim>-1</dim>
					<dim>768</dim>
				</port>
			</output>
		</layer>
		<layer id="122" name="MatMul_339" type="FullyConnected">
			<data execOrder="504" execTimeMcs="19614" originalLayersNames="MatMul_339" outputLayouts="bfyx" outputPrecisions="FP32" primitiveType="fully_connected_gpu_bfyx_ref__f32" runtimePrecision="FP32" />
			<input>
				<port id="0" precision="FP32">
					<dim>-1</dim>
					<dim>-1</dim>
					<dim>768</dim>
				</port>
			</input>
			<output>
				<port id="1" precision="FP32">
					<dim>-1</dim>
					<dim>-1</dim>
					<dim>768</dim>
				</port>
			</output>
		</layer>
		<layer id="123" name="Add_340" type="Eltwise">
			<data execOrder="507" execTimeMcs="57" originalLayersNames="Add_340" outputLayouts="bfyx" outputPrecisions="FP32" primitiveType="generic_eltwise_ref__f32" runtimePrecision="FP32" />
			<input>
				<port id="0" precision="FP32">
					<dim>-1</dim>
					<dim>-1</dim>
					<dim>768</dim>
				</port>
			</input>
			<output>
				<port id="1" precision="FP32">
					<dim>-1</dim>
					<dim>-1</dim>
					<dim>768</dim>
				</port>
			</output>
		</layer>
		<layer id="124" name="Reshape_375" type="Reshape">
			<data execOrder="510" execTimeMcs="not_executed" originalLayersNames="Reshape_375" outputLayouts="bfyx" outputPrecisions="FP32" primitiveType="undef" runtimePrecision="FP32" />
			<input>
				<port id="0" precision="FP32">
					<dim>-1</dim>
					<dim>-1</dim>
					<dim>768</dim>
				</port>
			</input>
			<output>
				<port id="1" precision="FP32">
					<dim>-1</dim>
					<dim>-1</dim>
					<dim>12</dim>
					<dim>64</dim>
				</port>
			</output>
		</layer>
		<layer id="125" name="Transpose_376" type="Permute">
			<data execOrder="513" execTimeMcs="14" originalLayersNames="Transpose_376" outputLayouts="bfyx" outputPrecisions="FP32" primitiveType="permute_ref__f32" runtimePrecision="FP32" />
			<input>
				<port id="0" precision="FP32">
					<dim>-1</dim>
					<dim>-1</dim>
					<dim>12</dim>
					<dim>64</dim>
				</port>
			</input>
			<output>
				<port id="1" precision="FP32">
					<dim>-1</dim>
					<dim>12</dim>
					<dim>-1</dim>
					<dim>64</dim>
				</port>
			</output>
		</layer>
		<layer id="126" name="MatMul_341" type="FullyConnected">
			<data execOrder="503" execTimeMcs="19629" originalLayersNames="MatMul_341" outputLayouts="bfyx" outputPrecisions="FP32" primitiveType="fully_connected_gpu_bfyx_ref__f32" runtimePrecision="FP32" />
			<input>
				<port id="0" precision="FP32">
					<dim>-1</dim>
					<dim>-1</dim>
					<dim>768</dim>
				</port>
			</input>
			<output>
				<port id="1" precision="FP32">
					<dim>-1</dim>
					<dim>-1</dim>
					<dim>768</dim>
				</port>
			</output>
		</layer>
		<layer id="127" name="Add_342" type="Eltwise">
			<data execOrder="506" execTimeMcs="20" originalLayersNames="Add_342" outputLayouts="bfyx" outputPrecisions="FP32" primitiveType="generic_eltwise_ref__f32" runtimePrecision="FP32" />
			<input>
				<port id="0" precision="FP32">
					<dim>-1</dim>
					<dim>-1</dim>
					<dim>768</dim>
				</port>
			</input>
			<output>
				<port id="1" precision="FP32">
					<dim>-1</dim>
					<dim>-1</dim>
					<dim>768</dim>
				</port>
			</output>
		</layer>
		<layer id="128" name="Reshape_352" type="Reshape">
			<data execOrder="509" execTimeMcs="not_executed" originalLayersNames="Reshape_352" outputLayouts="bfyx" outputPrecisions="FP32" primitiveType="undef" runtimePrecision="FP32" />
			<input>
				<port id="0" precision="FP32">
					<dim>-1</dim>
					<dim>-1</dim>
					<dim>768</dim>
				</port>
			</input>
			<output>
				<port id="1" precision="FP32">
					<dim>-1</dim>
					<dim>-1</dim>
					<dim>12</dim>
					<dim>64</dim>
				</port>
			</output>
		</layer>
		<layer id="129" name="Transpose_377" type="Permute">
			<data execOrder="512" execTimeMcs="45" originalLayersNames="Transpose_377,Div_380_copy" outputLayouts="bfyx" outputPrecisions="FP32" primitiveType="permute_ref__f32" runtimePrecision="FP32" />
			<input>
				<port id="0" precision="FP32">
					<dim>-1</dim>
					<dim>-1</dim>
					<dim>12</dim>
					<dim>64</dim>
				</port>
			</input>
			<output>
				<port id="1" precision="FP32">
					<dim>-1</dim>
					<dim>12</dim>
					<dim>64</dim>
					<dim>-1</dim>
				</port>
			</output>
		</layer>
		<layer id="130" name="MatMul_378" type="Gemm">
			<data execOrder="514" execTimeMcs="412" originalLayersNames="MatMul_378,Add_381" outputLayouts="bfyx" outputPrecisions="FP32" primitiveType="gemm_ref__f32" runtimePrecision="FP32" />
			<input>
				<port id="0" precision="FP32">
					<dim>-1</dim>
					<dim>12</dim>
					<dim>-1</dim>
					<dim>64</dim>
				</port>
				<port id="1" precision="FP32">
					<dim>-1</dim>
					<dim>12</dim>
					<dim>64</dim>
					<dim>-1</dim>
				</port>
				<port id="2" precision="FP32">
					<dim>1</dim>
					<dim>1</dim>
					<dim>1</dim>
					<dim>-1</dim>
				</port>
			</input>
			<output>
				<port id="3" precision="FP32">
					<dim>-1</dim>
					<dim>12</dim>
					<dim>-1</dim>
					<dim>-1</dim>
				</port>
				<port id="4" precision="FP32">
					<dim>-1</dim>
					<dim>12</dim>
					<dim>-1</dim>
					<dim>-1</dim>
				</port>
			</output>
		</layer>
		<layer id="131" name="Softmax_382/FlattenONNX_/input_shape" type="shape_of">
			<data execOrder="515" execTimeMcs="2" originalLayersNames="Softmax_382/FlattenONNX_/input_shape" outputLayouts="bfyx" outputPrecisions="I32" primitiveType="shape_of_ref__f32" runtimePrecision="FP32" />
			<input>
				<port id="0" precision="FP32">
					<dim>-1</dim>
					<dim>12</dim>
					<dim>-1</dim>
					<dim>-1</dim>
				</port>
			</input>
			<output>
				<port id="1" precision="I32">
					<dim>4</dim>
				</port>
				<port id="2" precision="I32">
					<dim>4</dim>
				</port>
			</output>
		</layer>
		<layer id="132" name="Softmax_382/FlattenONNX_/input_shape/Gather" type="Gather">
			<data execOrder="516" execTimeMcs="2" originalLayersNames="Softmax_382/FlattenONNX_/input_shape/Gather" outputLayouts="bfyx" outputPrecisions="I32" primitiveType="gather_ref__i32" runtimePrecision="I32" />
			<input>
				<port id="0" precision="I32">
					<dim>4</dim>
				</port>
			</input>
			<output>
				<port id="1" precision="I32">
					<dim>3</dim>
				</port>
			</output>
		</layer>
		<layer id="133" name="Softmax_382/FlattenONNX_/first_dims" type="Reduce">
			<data execOrder="517" execTimeMcs="1" originalLayersNames="Softmax_382/FlattenONNX_/first_dims" outputLayouts="bfyx" outputPrecisions="I32" primitiveType="reduce_ref__i32" runtimePrecision="I32" />
			<input>
				<port id="0" precision="I32">
					<dim>3</dim>
				</port>
			</input>
			<output>
				<port id="1" precision="I32">
					<dim>1</dim>
				</port>
			</output>
		</layer>
		<layer id="134" name="Softmax_382/FlattenONNX_/first_dims/shapes_concat" type="Concat">
			<data execOrder="518" execTimeMcs="3" originalLayersNames="Softmax_382/FlattenONNX_/first_dims/shapes_concat" outputLayouts="bfyx" outputPrecisions="I32" primitiveType="concatenation_gpu_simple_ref__i32" runtimePrecision="I32" />
			<input>
				<port id="0" precision="I32">
					<dim>1</dim>
				</port>
			</input>
			<output>
				<port id="1" precision="I32">
					<dim>2</dim>
				</port>
			</output>
		</layer>
		<layer id="135" name="Softmax_382/FlattenONNX_/Reshape" type="Reshape">
			<data execOrder="519" execTimeMcs="not_executed" originalLayersNames="Softmax_382/FlattenONNX_/Reshape" outputLayouts="bfyx" outputPrecisions="FP32" primitiveType="undef" runtimePrecision="FP32" />
			<input>
				<port id="0" precision="FP32">
					<dim>-1</dim>
					<dim>12</dim>
					<dim>-1</dim>
					<dim>-1</dim>
				</port>
				<port id="1" precision="I32">
					<dim>2</dim>
				</port>
			</input>
			<output>
				<port id="2" precision="FP32">
					<dim>-1</dim>
					<dim>-1</dim>
				</port>
			</output>
		</layer>
		<layer id="136" name="Softmax_382/Softmax_" type="SoftMax">
			<data execOrder="520" execTimeMcs="538" originalLayersNames="Softmax_382/Softmax_" outputLayouts="bfyx" outputPrecisions="FP32" primitiveType="softmax_gpu_ref__f32" runtimePrecision="FP32" />
			<input>
				<port id="0" precision="FP32">
					<dim>-1</dim>
					<dim>-1</dim>
				</port>
			</input>
			<output>
				<port id="1" precision="FP32">
					<dim>-1</dim>
					<dim>-1</dim>
				</port>
			</output>
		</layer>
		<layer id="137" name="Softmax_382" type="Reshape">
			<data execOrder="521" execTimeMcs="not_executed" originalLayersNames="Softmax_382" outputLayouts="bfyx" outputPrecisions="FP32" primitiveType="undef" runtimePrecision="FP32" />
			<input>
				<port id="0" precision="FP32">
					<dim>-1</dim>
					<dim>-1</dim>
				</port>
				<port id="1" precision="I32">
					<dim>4</dim>
				</port>
			</input>
			<output>
				<port id="2" precision="FP32">
					<dim>-1</dim>
					<dim>12</dim>
					<dim>-1</dim>
					<dim>-1</dim>
				</port>
			</output>
		</layer>
		<layer id="138" name="MatMul_353" type="FullyConnected">
			<data execOrder="502" execTimeMcs="19605" originalLayersNames="MatMul_353" outputLayouts="bfyx" outputPrecisions="FP32" primitiveType="fully_connected_gpu_bfyx_ref__f32" runtimePrecision="FP32" />
			<input>
				<port id="0" precision="FP32">
					<dim>-1</dim>
					<dim>-1</dim>
					<dim>768</dim>
				</port>
			</input>
			<output>
				<port id="1" precision="FP32">
					<dim>-1</dim>
					<dim>-1</dim>
					<dim>768</dim>
				</port>
			</output>
		</layer>
		<layer id="139" name="Add_354" type="Eltwise">
			<data execOrder="505" execTimeMcs="27" originalLayersNames="Add_354" outputLayouts="bfyx" outputPrecisions="FP32" primitiveType="generic_eltwise_ref__f32" runtimePrecision="FP32" />
			<input>
				<port id="0" precision="FP32">
					<dim>-1</dim>
					<dim>-1</dim>
					<dim>768</dim>
				</port>
			</input>
			<output>
				<port id="1" precision="FP32">
					<dim>-1</dim>
					<dim>-1</dim>
					<dim>768</dim>
				</port>
			</output>
		</layer>
		<layer id="140" name="Reshape_364" type="Reshape">
			<data execOrder="508" execTimeMcs="not_executed" originalLayersNames="Reshape_364" outputLayouts="bfyx" outputPrecisions="FP32" primitiveType="undef" runtimePrecision="FP32" />
			<input>
				<port id="0" precision="FP32">
					<dim>-1</dim>
					<dim>-1</dim>
					<dim>768</dim>
				</port>
			</input>
			<output>
				<port id="1" precision="FP32">
					<dim>-1</dim>
					<dim>-1</dim>
					<dim>12</dim>
					<dim>64</dim>
				</port>
			</output>
		</layer>
		<layer id="141" name="Transpose_365" type="Permute">
			<data execOrder="511" execTimeMcs="36" originalLayersNames="Transpose_365" outputLayouts="bfyx" outputPrecisions="FP32" primitiveType="permute_ref__f32" runtimePrecision="FP32" />
			<input>
				<port id="0" precision="FP32">
					<dim>-1</dim>
					<dim>-1</dim>
					<dim>12</dim>
					<dim>64</dim>
				</port>
			</input>
			<output>
				<port id="1" precision="FP32">
					<dim>-1</dim>
					<dim>12</dim>
					<dim>-1</dim>
					<dim>64</dim>
				</port>
			</output>
		</layer>
		<layer id="142" name="MatMul_383" type="Gemm">
			<data execOrder="522" execTimeMcs="443" originalLayersNames="MatMul_383" outputLayouts="bfyx" outputPrecisions="FP32" primitiveType="gemm_ref__f32" runtimePrecision="FP32" />
			<input>
				<port id="0" precision="FP32">
					<dim>-1</dim>
					<dim>12</dim>
					<dim>-1</dim>
					<dim>-1</dim>
				</port>
				<port id="1" precision="FP32">
					<dim>-1</dim>
					<dim>12</dim>
					<dim>-1</dim>
					<dim>64</dim>
				</port>
			</input>
			<output>
				<port id="2" precision="FP32">
					<dim>-1</dim>
					<dim>12</dim>
					<dim>-1</dim>
					<dim>64</dim>
				</port>
			</output>
		</layer>
		<layer id="143" name="Transpose_384" type="Permute">
			<data execOrder="523" execTimeMcs="46" originalLayersNames="Transpose_384" outputLayouts="bfyx" outputPrecisions="FP32" primitiveType="permute_ref__f32" runtimePrecision="FP32" />
			<input>
				<port id="0" precision="FP32">
					<dim>-1</dim>
					<dim>12</dim>
					<dim>-1</dim>
					<dim>64</dim>
				</port>
			</input>
			<output>
				<port id="1" precision="FP32">
					<dim>-1</dim>
					<dim>-1</dim>
					<dim>12</dim>
					<dim>64</dim>
				</port>
			</output>
		</layer>
		<layer id="144" name="Reshape_394" type="Reshape">
			<data execOrder="524" execTimeMcs="not_executed" originalLayersNames="Reshape_394" outputLayouts="bfyx" outputPrecisions="FP32" primitiveType="undef" runtimePrecision="FP32" />
			<input>
				<port id="0" precision="FP32">
					<dim>-1</dim>
					<dim>-1</dim>
					<dim>12</dim>
					<dim>64</dim>
				</port>
			</input>
			<output>
				<port id="1" precision="FP32">
					<dim>-1</dim>
					<dim>-1</dim>
					<dim>768</dim>
				</port>
			</output>
		</layer>
		<layer id="145" name="MatMul_395" type="FullyConnected">
			<data execOrder="525" execTimeMcs="19706" originalLayersNames="MatMul_395" outputLayouts="bfyx" outputPrecisions="FP32" primitiveType="fully_connected_gpu_bfyx_ref__f32" runtimePrecision="FP32" />
			<input>
				<port id="0" precision="FP32">
					<dim>-1</dim>
					<dim>-1</dim>
					<dim>768</dim>
				</port>
			</input>
			<output>
				<port id="1" precision="FP32">
					<dim>-1</dim>
					<dim>-1</dim>
					<dim>768</dim>
				</port>
			</output>
		</layer>
		<layer id="146" name="Add_396" type="Eltwise">
			<data execOrder="526" execTimeMcs="29" originalLayersNames="Add_396,Add_397" outputLayouts="bfyx" outputPrecisions="FP32" primitiveType="generic_eltwise_ref__f32" runtimePrecision="FP32" />
			<input>
				<port id="0" precision="FP32">
					<dim>-1</dim>
					<dim>-1</dim>
					<dim>768</dim>
				</port>
				<port id="1" precision="FP32">
					<dim>-1</dim>
					<dim>-1</dim>
					<dim>768</dim>
				</port>
			</input>
			<output>
				<port id="2" precision="FP32">
					<dim>-1</dim>
					<dim>-1</dim>
					<dim>768</dim>
				</port>
			</output>
		</layer>
		<layer id="147" name="Div_406" type="MVN">
			<data execOrder="527" execTimeMcs="102" originalLayersNames="Div_406" outputLayouts="bfyx" outputPrecisions="FP32" primitiveType="mvn_gpu_ref__f32" runtimePrecision="FP32" />
			<input>
				<port id="0" precision="FP32">
					<dim>-1</dim>
					<dim>-1</dim>
					<dim>768</dim>
				</port>
			</input>
			<output>
				<port id="1" precision="FP32">
					<dim>-1</dim>
					<dim>-1</dim>
					<dim>768</dim>
				</port>
			</output>
		</layer>
		<layer id="148" name="Mul_407" type="Eltwise">
			<data execOrder="528" execTimeMcs="20" originalLayersNames="Mul_407,Add_408" outputLayouts="bfyx" outputPrecisions="FP32" primitiveType="generic_eltwise_ref__f32" runtimePrecision="FP32" />
			<input>
				<port id="0" precision="FP32">
					<dim>-1</dim>
					<dim>-1</dim>
					<dim>768</dim>
				</port>
			</input>
			<output>
				<port id="1" precision="FP32">
					<dim>-1</dim>
					<dim>-1</dim>
					<dim>768</dim>
				</port>
				<port id="2" precision="FP32">
					<dim>-1</dim>
					<dim>-1</dim>
					<dim>768</dim>
				</port>
			</output>
		</layer>
		<layer id="149" name="MatMul_409" type="FullyConnected">
			<data execOrder="529" execTimeMcs="78565" originalLayersNames="MatMul_409" outputLayouts="bfyx" outputPrecisions="FP32" primitiveType="fully_connected_gpu_bfyx_ref__f32" runtimePrecision="FP32" />
			<input>
				<port id="0" precision="FP32">
					<dim>-1</dim>
					<dim>-1</dim>
					<dim>768</dim>
				</port>
			</input>
			<output>
				<port id="1" precision="FP32">
					<dim>-1</dim>
					<dim>-1</dim>
					<dim>3072</dim>
				</port>
			</output>
		</layer>
		<layer id="150" name="Add_410" type="Eltwise">
			<data execOrder="530" execTimeMcs="149" originalLayersNames="Add_410,Mul_418" outputLayouts="bfyx" outputPrecisions="FP32" primitiveType="generic_eltwise_ref__f32" runtimePrecision="FP32" />
			<input>
				<port id="0" precision="FP32">
					<dim>-1</dim>
					<dim>-1</dim>
					<dim>3072</dim>
				</port>
			</input>
			<output>
				<port id="1" precision="FP32">
					<dim>-1</dim>
					<dim>-1</dim>
					<dim>3072</dim>
				</port>
			</output>
		</layer>
		<layer id="151" name="MatMul_419" type="FullyConnected">
			<data execOrder="531" execTimeMcs="78221" originalLayersNames="MatMul_419" outputLayouts="bfyx" outputPrecisions="FP32" primitiveType="fully_connected_gpu_bfyx_ref__f32" runtimePrecision="FP32" />
			<input>
				<port id="0" precision="FP32">
					<dim>-1</dim>
					<dim>-1</dim>
					<dim>3072</dim>
				</port>
			</input>
			<output>
				<port id="1" precision="FP32">
					<dim>-1</dim>
					<dim>-1</dim>
					<dim>768</dim>
				</port>
			</output>
		</layer>
		<layer id="152" name="Add_420" type="Eltwise">
			<data execOrder="532" execTimeMcs="50" originalLayersNames="Add_420,Add_421" outputLayouts="bfyx" outputPrecisions="FP32" primitiveType="generic_eltwise_ref__f32" runtimePrecision="FP32" />
			<input>
				<port id="0" precision="FP32">
					<dim>-1</dim>
					<dim>-1</dim>
					<dim>768</dim>
				</port>
				<port id="1" precision="FP32">
					<dim>-1</dim>
					<dim>-1</dim>
					<dim>768</dim>
				</port>
			</input>
			<output>
				<port id="2" precision="FP32">
					<dim>-1</dim>
					<dim>-1</dim>
					<dim>768</dim>
				</port>
			</output>
		</layer>
		<layer id="153" name="Div_430" type="MVN">
			<data execOrder="533" execTimeMcs="101" originalLayersNames="Div_430" outputLayouts="bfyx" outputPrecisions="FP32" primitiveType="mvn_gpu_ref__f32" runtimePrecision="FP32" />
			<input>
				<port id="0" precision="FP32">
					<dim>-1</dim>
					<dim>-1</dim>
					<dim>768</dim>
				</port>
			</input>
			<output>
				<port id="1" precision="FP32">
					<dim>-1</dim>
					<dim>-1</dim>
					<dim>768</dim>
				</port>
			</output>
		</layer>
		<layer id="154" name="Mul_431" type="Eltwise">
			<data execOrder="534" execTimeMcs="20" originalLayersNames="Mul_431,Add_432" outputLayouts="bfyx" outputPrecisions="FP32" primitiveType="generic_eltwise_ref__f32" runtimePrecision="FP32" />
			<input>
				<port id="0" precision="FP32">
					<dim>-1</dim>
					<dim>-1</dim>
					<dim>768</dim>
				</port>
			</input>
			<output>
				<port id="1" precision="FP32">
					<dim>-1</dim>
					<dim>-1</dim>
					<dim>768</dim>
				</port>
				<port id="2" precision="FP32">
					<dim>-1</dim>
					<dim>-1</dim>
					<dim>768</dim>
				</port>
				<port id="3" precision="FP32">
					<dim>-1</dim>
					<dim>-1</dim>
					<dim>768</dim>
				</port>
				<port id="4" precision="FP32">
					<dim>-1</dim>
					<dim>-1</dim>
					<dim>768</dim>
				</port>
			</output>
		</layer>
		<layer id="155" name="MatMul_433" type="FullyConnected">
			<data execOrder="537" execTimeMcs="19681" originalLayersNames="MatMul_433" outputLayouts="bfyx" outputPrecisions="FP32" primitiveType="fully_connected_gpu_bfyx_ref__f32" runtimePrecision="FP32" />
			<input>
				<port id="0" precision="FP32">
					<dim>-1</dim>
					<dim>-1</dim>
					<dim>768</dim>
				</port>
			</input>
			<output>
				<port id="1" precision="FP32">
					<dim>-1</dim>
					<dim>-1</dim>
					<dim>768</dim>
				</port>
			</output>
		</layer>
		<layer id="156" name="Add_434" type="Eltwise">
			<data execOrder="540" execTimeMcs="56" originalLayersNames="Add_434" outputLayouts="bfyx" outputPrecisions="FP32" primitiveType="generic_eltwise_ref__f32" runtimePrecision="FP32" />
			<input>
				<port id="0" precision="FP32">
					<dim>-1</dim>
					<dim>-1</dim>
					<dim>768</dim>
				</port>
			</input>
			<output>
				<port id="1" precision="FP32">
					<dim>-1</dim>
					<dim>-1</dim>
					<dim>768</dim>
				</port>
			</output>
		</layer>
		<layer id="157" name="Reshape_469" type="Reshape">
			<data execOrder="543" execTimeMcs="not_executed" originalLayersNames="Reshape_469" outputLayouts="bfyx" outputPrecisions="FP32" primitiveType="undef" runtimePrecision="FP32" />
			<input>
				<port id="0" precision="FP32">
					<dim>-1</dim>
					<dim>-1</dim>
					<dim>768</dim>
				</port>
			</input>
			<output>
				<port id="1" precision="FP32">
					<dim>-1</dim>
					<dim>-1</dim>
					<dim>12</dim>
					<dim>64</dim>
				</port>
			</output>
		</layer>
		<layer id="158" name="Transpose_470" type="Permute">
			<data execOrder="546" execTimeMcs="14" originalLayersNames="Transpose_470" outputLayouts="bfyx" outputPrecisions="FP32" primitiveType="permute_ref__f32" runtimePrecision="FP32" />
			<input>
				<port id="0" precision="FP32">
					<dim>-1</dim>
					<dim>-1</dim>
					<dim>12</dim>
					<dim>64</dim>
				</port>
			</input>
			<output>
				<port id="1" precision="FP32">
					<dim>-1</dim>
					<dim>12</dim>
					<dim>-1</dim>
					<dim>64</dim>
				</port>
			</output>
		</layer>
		<layer id="159" name="MatMul_435" type="FullyConnected">
			<data execOrder="536" execTimeMcs="19638" originalLayersNames="MatMul_435" outputLayouts="bfyx" outputPrecisions="FP32" primitiveType="fully_connected_gpu_bfyx_ref__f32" runtimePrecision="FP32" />
			<input>
				<port id="0" precision="FP32">
					<dim>-1</dim>
					<dim>-1</dim>
					<dim>768</dim>
				</port>
			</input>
			<output>
				<port id="1" precision="FP32">
					<dim>-1</dim>
					<dim>-1</dim>
					<dim>768</dim>
				</port>
			</output>
		</layer>
		<layer id="160" name="Add_436" type="Eltwise">
			<data execOrder="539" execTimeMcs="20" originalLayersNames="Add_436" outputLayouts="bfyx" outputPrecisions="FP32" primitiveType="generic_eltwise_ref__f32" runtimePrecision="FP32" />
			<input>
				<port id="0" precision="FP32">
					<dim>-1</dim>
					<dim>-1</dim>
					<dim>768</dim>
				</port>
			</input>
			<output>
				<port id="1" precision="FP32">
					<dim>-1</dim>
					<dim>-1</dim>
					<dim>768</dim>
				</port>
			</output>
		</layer>
		<layer id="161" name="Reshape_446" type="Reshape">
			<data execOrder="542" execTimeMcs="not_executed" originalLayersNames="Reshape_446" outputLayouts="bfyx" outputPrecisions="FP32" primitiveType="undef" runtimePrecision="FP32" />
			<input>
				<port id="0" precision="FP32">
					<dim>-1</dim>
					<dim>-1</dim>
					<dim>768</dim>
				</port>
			</input>
			<output>
				<port id="1" precision="FP32">
					<dim>-1</dim>
					<dim>-1</dim>
					<dim>12</dim>
					<dim>64</dim>
				</port>
			</output>
		</layer>
		<layer id="162" name="Transpose_471" type="Permute">
			<data execOrder="545" execTimeMcs="42" originalLayersNames="Transpose_471,Div_474_copy" outputLayouts="bfyx" outputPrecisions="FP32" primitiveType="permute_ref__f32" runtimePrecision="FP32" />
			<input>
				<port id="0" precision="FP32">
					<dim>-1</dim>
					<dim>-1</dim>
					<dim>12</dim>
					<dim>64</dim>
				</port>
			</input>
			<output>
				<port id="1" precision="FP32">
					<dim>-1</dim>
					<dim>12</dim>
					<dim>64</dim>
					<dim>-1</dim>
				</port>
			</output>
		</layer>
		<layer id="163" name="MatMul_472" type="Gemm">
			<data execOrder="547" execTimeMcs="436" originalLayersNames="MatMul_472,Add_475" outputLayouts="bfyx" outputPrecisions="FP32" primitiveType="gemm_ref__f32" runtimePrecision="FP32" />
			<input>
				<port id="0" precision="FP32">
					<dim>-1</dim>
					<dim>12</dim>
					<dim>-1</dim>
					<dim>64</dim>
				</port>
				<port id="1" precision="FP32">
					<dim>-1</dim>
					<dim>12</dim>
					<dim>64</dim>
					<dim>-1</dim>
				</port>
				<port id="2" precision="FP32">
					<dim>1</dim>
					<dim>1</dim>
					<dim>1</dim>
					<dim>-1</dim>
				</port>
			</input>
			<output>
				<port id="3" precision="FP32">
					<dim>-1</dim>
					<dim>12</dim>
					<dim>-1</dim>
					<dim>-1</dim>
				</port>
				<port id="4" precision="FP32">
					<dim>-1</dim>
					<dim>12</dim>
					<dim>-1</dim>
					<dim>-1</dim>
				</port>
			</output>
		</layer>
		<layer id="164" name="Softmax_476/FlattenONNX_/input_shape" type="shape_of">
			<data execOrder="548" execTimeMcs="2" originalLayersNames="Softmax_476/FlattenONNX_/input_shape" outputLayouts="bfyx" outputPrecisions="I32" primitiveType="shape_of_ref__f32" runtimePrecision="FP32" />
			<input>
				<port id="0" precision="FP32">
					<dim>-1</dim>
					<dim>12</dim>
					<dim>-1</dim>
					<dim>-1</dim>
				</port>
			</input>
			<output>
				<port id="1" precision="I32">
					<dim>4</dim>
				</port>
				<port id="2" precision="I32">
					<dim>4</dim>
				</port>
			</output>
		</layer>
		<layer id="165" name="Softmax_476/FlattenONNX_/input_shape/Gather" type="Gather">
			<data execOrder="549" execTimeMcs="2" originalLayersNames="Softmax_476/FlattenONNX_/input_shape/Gather" outputLayouts="bfyx" outputPrecisions="I32" primitiveType="gather_ref__i32" runtimePrecision="I32" />
			<input>
				<port id="0" precision="I32">
					<dim>4</dim>
				</port>
			</input>
			<output>
				<port id="1" precision="I32">
					<dim>3</dim>
				</port>
			</output>
		</layer>
		<layer id="166" name="Softmax_476/FlattenONNX_/first_dims" type="Reduce">
			<data execOrder="550" execTimeMcs="1" originalLayersNames="Softmax_476/FlattenONNX_/first_dims" outputLayouts="bfyx" outputPrecisions="I32" primitiveType="reduce_ref__i32" runtimePrecision="I32" />
			<input>
				<port id="0" precision="I32">
					<dim>3</dim>
				</port>
			</input>
			<output>
				<port id="1" precision="I32">
					<dim>1</dim>
				</port>
			</output>
		</layer>
		<layer id="167" name="Softmax_476/FlattenONNX_/first_dims/shapes_concat" type="Concat">
			<data execOrder="551" execTimeMcs="3" originalLayersNames="Softmax_476/FlattenONNX_/first_dims/shapes_concat" outputLayouts="bfyx" outputPrecisions="I32" primitiveType="concatenation_gpu_simple_ref__i32" runtimePrecision="I32" />
			<input>
				<port id="0" precision="I32">
					<dim>1</dim>
				</port>
			</input>
			<output>
				<port id="1" precision="I32">
					<dim>2</dim>
				</port>
			</output>
		</layer>
		<layer id="168" name="Softmax_476/FlattenONNX_/Reshape" type="Reshape">
			<data execOrder="552" execTimeMcs="not_executed" originalLayersNames="Softmax_476/FlattenONNX_/Reshape" outputLayouts="bfyx" outputPrecisions="FP32" primitiveType="undef" runtimePrecision="FP32" />
			<input>
				<port id="0" precision="FP32">
					<dim>-1</dim>
					<dim>12</dim>
					<dim>-1</dim>
					<dim>-1</dim>
				</port>
				<port id="1" precision="I32">
					<dim>2</dim>
				</port>
			</input>
			<output>
				<port id="2" precision="FP32">
					<dim>-1</dim>
					<dim>-1</dim>
				</port>
			</output>
		</layer>
		<layer id="169" name="Softmax_476/Softmax_" type="SoftMax">
			<data execOrder="553" execTimeMcs="552" originalLayersNames="Softmax_476/Softmax_" outputLayouts="bfyx" outputPrecisions="FP32" primitiveType="softmax_gpu_ref__f32" runtimePrecision="FP32" />
			<input>
				<port id="0" precision="FP32">
					<dim>-1</dim>
					<dim>-1</dim>
				</port>
			</input>
			<output>
				<port id="1" precision="FP32">
					<dim>-1</dim>
					<dim>-1</dim>
				</port>
			</output>
		</layer>
		<layer id="170" name="Softmax_476" type="Reshape">
			<data execOrder="554" execTimeMcs="not_executed" originalLayersNames="Softmax_476" outputLayouts="bfyx" outputPrecisions="FP32" primitiveType="undef" runtimePrecision="FP32" />
			<input>
				<port id="0" precision="FP32">
					<dim>-1</dim>
					<dim>-1</dim>
				</port>
				<port id="1" precision="I32">
					<dim>4</dim>
				</port>
			</input>
			<output>
				<port id="2" precision="FP32">
					<dim>-1</dim>
					<dim>12</dim>
					<dim>-1</dim>
					<dim>-1</dim>
				</port>
			</output>
		</layer>
		<layer id="171" name="MatMul_447" type="FullyConnected">
			<data execOrder="535" execTimeMcs="19635" originalLayersNames="MatMul_447" outputLayouts="bfyx" outputPrecisions="FP32" primitiveType="fully_connected_gpu_bfyx_ref__f32" runtimePrecision="FP32" />
			<input>
				<port id="0" precision="FP32">
					<dim>-1</dim>
					<dim>-1</dim>
					<dim>768</dim>
				</port>
			</input>
			<output>
				<port id="1" precision="FP32">
					<dim>-1</dim>
					<dim>-1</dim>
					<dim>768</dim>
				</port>
			</output>
		</layer>
		<layer id="172" name="Add_448" type="Eltwise">
			<data execOrder="538" execTimeMcs="27" originalLayersNames="Add_448" outputLayouts="bfyx" outputPrecisions="FP32" primitiveType="generic_eltwise_ref__f32" runtimePrecision="FP32" />
			<input>
				<port id="0" precision="FP32">
					<dim>-1</dim>
					<dim>-1</dim>
					<dim>768</dim>
				</port>
			</input>
			<output>
				<port id="1" precision="FP32">
					<dim>-1</dim>
					<dim>-1</dim>
					<dim>768</dim>
				</port>
			</output>
		</layer>
		<layer id="173" name="Reshape_458" type="Reshape">
			<data execOrder="541" execTimeMcs="not_executed" originalLayersNames="Reshape_458" outputLayouts="bfyx" outputPrecisions="FP32" primitiveType="undef" runtimePrecision="FP32" />
			<input>
				<port id="0" precision="FP32">
					<dim>-1</dim>
					<dim>-1</dim>
					<dim>768</dim>
				</port>
			</input>
			<output>
				<port id="1" precision="FP32">
					<dim>-1</dim>
					<dim>-1</dim>
					<dim>12</dim>
					<dim>64</dim>
				</port>
			</output>
		</layer>
		<layer id="174" name="Transpose_459" type="Permute">
			<data execOrder="544" execTimeMcs="26" originalLayersNames="Transpose_459" outputLayouts="bfyx" outputPrecisions="FP32" primitiveType="permute_ref__f32" runtimePrecision="FP32" />
			<input>
				<port id="0" precision="FP32">
					<dim>-1</dim>
					<dim>-1</dim>
					<dim>12</dim>
					<dim>64</dim>
				</port>
			</input>
			<output>
				<port id="1" precision="FP32">
					<dim>-1</dim>
					<dim>12</dim>
					<dim>-1</dim>
					<dim>64</dim>
				</port>
			</output>
		</layer>
		<layer id="175" name="MatMul_477" type="Gemm">
			<data execOrder="555" execTimeMcs="460" originalLayersNames="MatMul_477" outputLayouts="bfyx" outputPrecisions="FP32" primitiveType="gemm_ref__f32" runtimePrecision="FP32" />
			<input>
				<port id="0" precision="FP32">
					<dim>-1</dim>
					<dim>12</dim>
					<dim>-1</dim>
					<dim>-1</dim>
				</port>
				<port id="1" precision="FP32">
					<dim>-1</dim>
					<dim>12</dim>
					<dim>-1</dim>
					<dim>64</dim>
				</port>
			</input>
			<output>
				<port id="2" precision="FP32">
					<dim>-1</dim>
					<dim>12</dim>
					<dim>-1</dim>
					<dim>64</dim>
				</port>
			</output>
		</layer>
		<layer id="176" name="Transpose_478" type="Permute">
			<data execOrder="556" execTimeMcs="36" originalLayersNames="Transpose_478" outputLayouts="bfyx" outputPrecisions="FP32" primitiveType="permute_ref__f32" runtimePrecision="FP32" />
			<input>
				<port id="0" precision="FP32">
					<dim>-1</dim>
					<dim>12</dim>
					<dim>-1</dim>
					<dim>64</dim>
				</port>
			</input>
			<output>
				<port id="1" precision="FP32">
					<dim>-1</dim>
					<dim>-1</dim>
					<dim>12</dim>
					<dim>64</dim>
				</port>
			</output>
		</layer>
		<layer id="177" name="Reshape_488" type="Reshape">
			<data execOrder="557" execTimeMcs="not_executed" originalLayersNames="Reshape_488" outputLayouts="bfyx" outputPrecisions="FP32" primitiveType="undef" runtimePrecision="FP32" />
			<input>
				<port id="0" precision="FP32">
					<dim>-1</dim>
					<dim>-1</dim>
					<dim>12</dim>
					<dim>64</dim>
				</port>
			</input>
			<output>
				<port id="1" precision="FP32">
					<dim>-1</dim>
					<dim>-1</dim>
					<dim>768</dim>
				</port>
			</output>
		</layer>
		<layer id="178" name="MatMul_489" type="FullyConnected">
			<data execOrder="558" execTimeMcs="19663" originalLayersNames="MatMul_489" outputLayouts="bfyx" outputPrecisions="FP32" primitiveType="fully_connected_gpu_bfyx_ref__f32" runtimePrecision="FP32" />
			<input>
				<port id="0" precision="FP32">
					<dim>-1</dim>
					<dim>-1</dim>
					<dim>768</dim>
				</port>
			</input>
			<output>
				<port id="1" precision="FP32">
					<dim>-1</dim>
					<dim>-1</dim>
					<dim>768</dim>
				</port>
			</output>
		</layer>
		<layer id="179" name="Add_490" type="Eltwise">
			<data execOrder="559" execTimeMcs="35" originalLayersNames="Add_490,Add_491" outputLayouts="bfyx" outputPrecisions="FP32" primitiveType="generic_eltwise_ref__f32" runtimePrecision="FP32" />
			<input>
				<port id="0" precision="FP32">
					<dim>-1</dim>
					<dim>-1</dim>
					<dim>768</dim>
				</port>
				<port id="1" precision="FP32">
					<dim>-1</dim>
					<dim>-1</dim>
					<dim>768</dim>
				</port>
			</input>
			<output>
				<port id="2" precision="FP32">
					<dim>-1</dim>
					<dim>-1</dim>
					<dim>768</dim>
				</port>
			</output>
		</layer>
		<layer id="180" name="Div_500" type="MVN">
			<data execOrder="560" execTimeMcs="100" originalLayersNames="Div_500" outputLayouts="bfyx" outputPrecisions="FP32" primitiveType="mvn_gpu_ref__f32" runtimePrecision="FP32" />
			<input>
				<port id="0" precision="FP32">
					<dim>-1</dim>
					<dim>-1</dim>
					<dim>768</dim>
				</port>
			</input>
			<output>
				<port id="1" precision="FP32">
					<dim>-1</dim>
					<dim>-1</dim>
					<dim>768</dim>
				</port>
			</output>
		</layer>
		<layer id="181" name="Mul_501" type="Eltwise">
			<data execOrder="561" execTimeMcs="20" originalLayersNames="Mul_501,Add_502" outputLayouts="bfyx" outputPrecisions="FP32" primitiveType="generic_eltwise_ref__f32" runtimePrecision="FP32" />
			<input>
				<port id="0" precision="FP32">
					<dim>-1</dim>
					<dim>-1</dim>
					<dim>768</dim>
				</port>
			</input>
			<output>
				<port id="1" precision="FP32">
					<dim>-1</dim>
					<dim>-1</dim>
					<dim>768</dim>
				</port>
				<port id="2" precision="FP32">
					<dim>-1</dim>
					<dim>-1</dim>
					<dim>768</dim>
				</port>
			</output>
		</layer>
		<layer id="182" name="MatMul_503" type="FullyConnected">
			<data execOrder="562" execTimeMcs="78293" originalLayersNames="MatMul_503" outputLayouts="bfyx" outputPrecisions="FP32" primitiveType="fully_connected_gpu_bfyx_ref__f32" runtimePrecision="FP32" />
			<input>
				<port id="0" precision="FP32">
					<dim>-1</dim>
					<dim>-1</dim>
					<dim>768</dim>
				</port>
			</input>
			<output>
				<port id="1" precision="FP32">
					<dim>-1</dim>
					<dim>-1</dim>
					<dim>3072</dim>
				</port>
			</output>
		</layer>
		<layer id="183" name="Add_504" type="Eltwise">
			<data execOrder="563" execTimeMcs="151" originalLayersNames="Add_504,Mul_512" outputLayouts="bfyx" outputPrecisions="FP32" primitiveType="generic_eltwise_ref__f32" runtimePrecision="FP32" />
			<input>
				<port id="0" precision="FP32">
					<dim>-1</dim>
					<dim>-1</dim>
					<dim>3072</dim>
				</port>
			</input>
			<output>
				<port id="1" precision="FP32">
					<dim>-1</dim>
					<dim>-1</dim>
					<dim>3072</dim>
				</port>
			</output>
		</layer>
		<layer id="184" name="MatMul_513" type="FullyConnected">
			<data execOrder="564" execTimeMcs="78285" originalLayersNames="MatMul_513" outputLayouts="bfyx" outputPrecisions="FP32" primitiveType="fully_connected_gpu_bfyx_ref__f32" runtimePrecision="FP32" />
			<input>
				<port id="0" precision="FP32">
					<dim>-1</dim>
					<dim>-1</dim>
					<dim>3072</dim>
				</port>
			</input>
			<output>
				<port id="1" precision="FP32">
					<dim>-1</dim>
					<dim>-1</dim>
					<dim>768</dim>
				</port>
			</output>
		</layer>
		<layer id="185" name="Add_514" type="Eltwise">
			<data execOrder="565" execTimeMcs="36" originalLayersNames="Add_514,Add_515" outputLayouts="bfyx" outputPrecisions="FP32" primitiveType="generic_eltwise_ref__f32" runtimePrecision="FP32" />
			<input>
				<port id="0" precision="FP32">
					<dim>-1</dim>
					<dim>-1</dim>
					<dim>768</dim>
				</port>
				<port id="1" precision="FP32">
					<dim>-1</dim>
					<dim>-1</dim>
					<dim>768</dim>
				</port>
			</input>
			<output>
				<port id="2" precision="FP32">
					<dim>-1</dim>
					<dim>-1</dim>
					<dim>768</dim>
				</port>
			</output>
		</layer>
		<layer id="186" name="Div_524" type="MVN">
			<data execOrder="566" execTimeMcs="101" originalLayersNames="Div_524" outputLayouts="bfyx" outputPrecisions="FP32" primitiveType="mvn_gpu_ref__f32" runtimePrecision="FP32" />
			<input>
				<port id="0" precision="FP32">
					<dim>-1</dim>
					<dim>-1</dim>
					<dim>768</dim>
				</port>
			</input>
			<output>
				<port id="1" precision="FP32">
					<dim>-1</dim>
					<dim>-1</dim>
					<dim>768</dim>
				</port>
			</output>
		</layer>
		<layer id="187" name="Mul_525" type="Eltwise">
			<data execOrder="567" execTimeMcs="20" originalLayersNames="Mul_525,Add_526" outputLayouts="bfyx" outputPrecisions="FP32" primitiveType="generic_eltwise_ref__f32" runtimePrecision="FP32" />
			<input>
				<port id="0" precision="FP32">
					<dim>-1</dim>
					<dim>-1</dim>
					<dim>768</dim>
				</port>
			</input>
			<output>
				<port id="1" precision="FP32">
					<dim>-1</dim>
					<dim>-1</dim>
					<dim>768</dim>
				</port>
				<port id="2" precision="FP32">
					<dim>-1</dim>
					<dim>-1</dim>
					<dim>768</dim>
				</port>
				<port id="3" precision="FP32">
					<dim>-1</dim>
					<dim>-1</dim>
					<dim>768</dim>
				</port>
				<port id="4" precision="FP32">
					<dim>-1</dim>
					<dim>-1</dim>
					<dim>768</dim>
				</port>
			</output>
		</layer>
		<layer id="188" name="MatMul_527" type="FullyConnected">
			<data execOrder="570" execTimeMcs="19620" originalLayersNames="MatMul_527" outputLayouts="bfyx" outputPrecisions="FP32" primitiveType="fully_connected_gpu_bfyx_ref__f32" runtimePrecision="FP32" />
			<input>
				<port id="0" precision="FP32">
					<dim>-1</dim>
					<dim>-1</dim>
					<dim>768</dim>
				</port>
			</input>
			<output>
				<port id="1" precision="FP32">
					<dim>-1</dim>
					<dim>-1</dim>
					<dim>768</dim>
				</port>
			</output>
		</layer>
		<layer id="189" name="Add_528" type="Eltwise">
			<data execOrder="573" execTimeMcs="52" originalLayersNames="Add_528" outputLayouts="bfyx" outputPrecisions="FP32" primitiveType="generic_eltwise_ref__f32" runtimePrecision="FP32" />
			<input>
				<port id="0" precision="FP32">
					<dim>-1</dim>
					<dim>-1</dim>
					<dim>768</dim>
				</port>
			</input>
			<output>
				<port id="1" precision="FP32">
					<dim>-1</dim>
					<dim>-1</dim>
					<dim>768</dim>
				</port>
			</output>
		</layer>
		<layer id="190" name="Reshape_563" type="Reshape">
			<data execOrder="576" execTimeMcs="not_executed" originalLayersNames="Reshape_563" outputLayouts="bfyx" outputPrecisions="FP32" primitiveType="undef" runtimePrecision="FP32" />
			<input>
				<port id="0" precision="FP32">
					<dim>-1</dim>
					<dim>-1</dim>
					<dim>768</dim>
				</port>
			</input>
			<output>
				<port id="1" precision="FP32">
					<dim>-1</dim>
					<dim>-1</dim>
					<dim>12</dim>
					<dim>64</dim>
				</port>
			</output>
		</layer>
		<layer id="191" name="Transpose_564" type="Permute">
			<data execOrder="579" execTimeMcs="17" originalLayersNames="Transpose_564" outputLayouts="bfyx" outputPrecisions="FP32" primitiveType="permute_ref__f32" runtimePrecision="FP32" />
			<input>
				<port id="0" precision="FP32">
					<dim>-1</dim>
					<dim>-1</dim>
					<dim>12</dim>
					<dim>64</dim>
				</port>
			</input>
			<output>
				<port id="1" precision="FP32">
					<dim>-1</dim>
					<dim>12</dim>
					<dim>-1</dim>
					<dim>64</dim>
				</port>
			</output>
		</layer>
		<layer id="192" name="MatMul_529" type="FullyConnected">
			<data execOrder="569" execTimeMcs="19635" originalLayersNames="MatMul_529" outputLayouts="bfyx" outputPrecisions="FP32" primitiveType="fully_connected_gpu_bfyx_ref__f32" runtimePrecision="FP32" />
			<input>
				<port id="0" precision="FP32">
					<dim>-1</dim>
					<dim>-1</dim>
					<dim>768</dim>
				</port>
			</input>
			<output>
				<port id="1" precision="FP32">
					<dim>-1</dim>
					<dim>-1</dim>
					<dim>768</dim>
				</port>
			</output>
		</layer>
		<layer id="193" name="Add_530" type="Eltwise">
			<data execOrder="572" execTimeMcs="20" originalLayersNames="Add_530" outputLayouts="bfyx" outputPrecisions="FP32" primitiveType="generic_eltwise_ref__f32" runtimePrecision="FP32" />
			<input>
				<port id="0" precision="FP32">
					<dim>-1</dim>
					<dim>-1</dim>
					<dim>768</dim>
				</port>
			</input>
			<output>
				<port id="1" precision="FP32">
					<dim>-1</dim>
					<dim>-1</dim>
					<dim>768</dim>
				</port>
			</output>
		</layer>
		<layer id="194" name="Reshape_540" type="Reshape">
			<data execOrder="575" execTimeMcs="not_executed" originalLayersNames="Reshape_540" outputLayouts="bfyx" outputPrecisions="FP32" primitiveType="undef" runtimePrecision="FP32" />
			<input>
				<port id="0" precision="FP32">
					<dim>-1</dim>
					<dim>-1</dim>
					<dim>768</dim>
				</port>
			</input>
			<output>
				<port id="1" precision="FP32">
					<dim>-1</dim>
					<dim>-1</dim>
					<dim>12</dim>
					<dim>64</dim>
				</port>
			</output>
		</layer>
		<layer id="195" name="Transpose_565" type="Permute">
			<data execOrder="578" execTimeMcs="44" originalLayersNames="Transpose_565,Div_568_copy" outputLayouts="bfyx" outputPrecisions="FP32" primitiveType="permute_ref__f32" runtimePrecision="FP32" />
			<input>
				<port id="0" precision="FP32">
					<dim>-1</dim>
					<dim>-1</dim>
					<dim>12</dim>
					<dim>64</dim>
				</port>
			</input>
			<output>
				<port id="1" precision="FP32">
					<dim>-1</dim>
					<dim>12</dim>
					<dim>64</dim>
					<dim>-1</dim>
				</port>
			</output>
		</layer>
		<layer id="196" name="MatMul_566" type="Gemm">
			<data execOrder="580" execTimeMcs="425" originalLayersNames="MatMul_566,Add_569" outputLayouts="bfyx" outputPrecisions="FP32" primitiveType="gemm_ref__f32" runtimePrecision="FP32" />
			<input>
				<port id="0" precision="FP32">
					<dim>-1</dim>
					<dim>12</dim>
					<dim>-1</dim>
					<dim>64</dim>
				</port>
				<port id="1" precision="FP32">
					<dim>-1</dim>
					<dim>12</dim>
					<dim>64</dim>
					<dim>-1</dim>
				</port>
				<port id="2" precision="FP32">
					<dim>1</dim>
					<dim>1</dim>
					<dim>1</dim>
					<dim>-1</dim>
				</port>
			</input>
			<output>
				<port id="3" precision="FP32">
					<dim>-1</dim>
					<dim>12</dim>
					<dim>-1</dim>
					<dim>-1</dim>
				</port>
				<port id="4" precision="FP32">
					<dim>-1</dim>
					<dim>12</dim>
					<dim>-1</dim>
					<dim>-1</dim>
				</port>
			</output>
		</layer>
		<layer id="197" name="Softmax_570/FlattenONNX_/input_shape" type="shape_of">
			<data execOrder="581" execTimeMcs="2" originalLayersNames="Softmax_570/FlattenONNX_/input_shape" outputLayouts="bfyx" outputPrecisions="I32" primitiveType="shape_of_ref__f32" runtimePrecision="FP32" />
			<input>
				<port id="0" precision="FP32">
					<dim>-1</dim>
					<dim>12</dim>
					<dim>-1</dim>
					<dim>-1</dim>
				</port>
			</input>
			<output>
				<port id="1" precision="I32">
					<dim>4</dim>
				</port>
				<port id="2" precision="I32">
					<dim>4</dim>
				</port>
			</output>
		</layer>
		<layer id="198" name="Softmax_570/FlattenONNX_/input_shape/Gather" type="Gather">
			<data execOrder="582" execTimeMcs="2" originalLayersNames="Softmax_570/FlattenONNX_/input_shape/Gather" outputLayouts="bfyx" outputPrecisions="I32" primitiveType="gather_ref__i32" runtimePrecision="I32" />
			<input>
				<port id="0" precision="I32">
					<dim>4</dim>
				</port>
			</input>
			<output>
				<port id="1" precision="I32">
					<dim>3</dim>
				</port>
			</output>
		</layer>
		<layer id="199" name="Softmax_570/FlattenONNX_/first_dims" type="Reduce">
			<data execOrder="583" execTimeMcs="1" originalLayersNames="Softmax_570/FlattenONNX_/first_dims" outputLayouts="bfyx" outputPrecisions="I32" primitiveType="reduce_ref__i32" runtimePrecision="I32" />
			<input>
				<port id="0" precision="I32">
					<dim>3</dim>
				</port>
			</input>
			<output>
				<port id="1" precision="I32">
					<dim>1</dim>
				</port>
			</output>
		</layer>
		<layer id="200" name="Softmax_570/FlattenONNX_/first_dims/shapes_concat" type="Concat">
			<data execOrder="584" execTimeMcs="3" originalLayersNames="Softmax_570/FlattenONNX_/first_dims/shapes_concat" outputLayouts="bfyx" outputPrecisions="I32" primitiveType="concatenation_gpu_simple_ref__i32" runtimePrecision="I32" />
			<input>
				<port id="0" precision="I32">
					<dim>1</dim>
				</port>
			</input>
			<output>
				<port id="1" precision="I32">
					<dim>2</dim>
				</port>
			</output>
		</layer>
		<layer id="201" name="Softmax_570/FlattenONNX_/Reshape" type="Reshape">
			<data execOrder="585" execTimeMcs="not_executed" originalLayersNames="Softmax_570/FlattenONNX_/Reshape" outputLayouts="bfyx" outputPrecisions="FP32" primitiveType="undef" runtimePrecision="FP32" />
			<input>
				<port id="0" precision="FP32">
					<dim>-1</dim>
					<dim>12</dim>
					<dim>-1</dim>
					<dim>-1</dim>
				</port>
				<port id="1" precision="I32">
					<dim>2</dim>
				</port>
			</input>
			<output>
				<port id="2" precision="FP32">
					<dim>-1</dim>
					<dim>-1</dim>
				</port>
			</output>
		</layer>
		<layer id="202" name="Softmax_570/Softmax_" type="SoftMax">
			<data execOrder="586" execTimeMcs="533" originalLayersNames="Softmax_570/Softmax_" outputLayouts="bfyx" outputPrecisions="FP32" primitiveType="softmax_gpu_ref__f32" runtimePrecision="FP32" />
			<input>
				<port id="0" precision="FP32">
					<dim>-1</dim>
					<dim>-1</dim>
				</port>
			</input>
			<output>
				<port id="1" precision="FP32">
					<dim>-1</dim>
					<dim>-1</dim>
				</port>
			</output>
		</layer>
		<layer id="203" name="Softmax_570" type="Reshape">
			<data execOrder="587" execTimeMcs="not_executed" originalLayersNames="Softmax_570" outputLayouts="bfyx" outputPrecisions="FP32" primitiveType="undef" runtimePrecision="FP32" />
			<input>
				<port id="0" precision="FP32">
					<dim>-1</dim>
					<dim>-1</dim>
				</port>
				<port id="1" precision="I32">
					<dim>4</dim>
				</port>
			</input>
			<output>
				<port id="2" precision="FP32">
					<dim>-1</dim>
					<dim>12</dim>
					<dim>-1</dim>
					<dim>-1</dim>
				</port>
			</output>
		</layer>
		<layer id="204" name="MatMul_541" type="FullyConnected">
			<data execOrder="568" execTimeMcs="19677" originalLayersNames="MatMul_541" outputLayouts="bfyx" outputPrecisions="FP32" primitiveType="fully_connected_gpu_bfyx_ref__f32" runtimePrecision="FP32" />
			<input>
				<port id="0" precision="FP32">
					<dim>-1</dim>
					<dim>-1</dim>
					<dim>768</dim>
				</port>
			</input>
			<output>
				<port id="1" precision="FP32">
					<dim>-1</dim>
					<dim>-1</dim>
					<dim>768</dim>
				</port>
			</output>
		</layer>
		<layer id="205" name="Add_542" type="Eltwise">
			<data execOrder="571" execTimeMcs="27" originalLayersNames="Add_542" outputLayouts="bfyx" outputPrecisions="FP32" primitiveType="generic_eltwise_ref__f32" runtimePrecision="FP32" />
			<input>
				<port id="0" precision="FP32">
					<dim>-1</dim>
					<dim>-1</dim>
					<dim>768</dim>
				</port>
			</input>
			<output>
				<port id="1" precision="FP32">
					<dim>-1</dim>
					<dim>-1</dim>
					<dim>768</dim>
				</port>
			</output>
		</layer>
		<layer id="206" name="Reshape_552" type="Reshape">
			<data execOrder="574" execTimeMcs="not_executed" originalLayersNames="Reshape_552" outputLayouts="bfyx" outputPrecisions="FP32" primitiveType="undef" runtimePrecision="FP32" />
			<input>
				<port id="0" precision="FP32">
					<dim>-1</dim>
					<dim>-1</dim>
					<dim>768</dim>
				</port>
			</input>
			<output>
				<port id="1" precision="FP32">
					<dim>-1</dim>
					<dim>-1</dim>
					<dim>12</dim>
					<dim>64</dim>
				</port>
			</output>
		</layer>
		<layer id="207" name="Transpose_553" type="Permute">
			<data execOrder="577" execTimeMcs="38" originalLayersNames="Transpose_553" outputLayouts="bfyx" outputPrecisions="FP32" primitiveType="permute_ref__f32" runtimePrecision="FP32" />
			<input>
				<port id="0" precision="FP32">
					<dim>-1</dim>
					<dim>-1</dim>
					<dim>12</dim>
					<dim>64</dim>
				</port>
			</input>
			<output>
				<port id="1" precision="FP32">
					<dim>-1</dim>
					<dim>12</dim>
					<dim>-1</dim>
					<dim>64</dim>
				</port>
			</output>
		</layer>
		<layer id="208" name="MatMul_571" type="Gemm">
			<data execOrder="588" execTimeMcs="450" originalLayersNames="MatMul_571" outputLayouts="bfyx" outputPrecisions="FP32" primitiveType="gemm_ref__f32" runtimePrecision="FP32" />
			<input>
				<port id="0" precision="FP32">
					<dim>-1</dim>
					<dim>12</dim>
					<dim>-1</dim>
					<dim>-1</dim>
				</port>
				<port id="1" precision="FP32">
					<dim>-1</dim>
					<dim>12</dim>
					<dim>-1</dim>
					<dim>64</dim>
				</port>
			</input>
			<output>
				<port id="2" precision="FP32">
					<dim>-1</dim>
					<dim>12</dim>
					<dim>-1</dim>
					<dim>64</dim>
				</port>
			</output>
		</layer>
		<layer id="209" name="Transpose_572" type="Permute">
			<data execOrder="589" execTimeMcs="47" originalLayersNames="Transpose_572" outputLayouts="bfyx" outputPrecisions="FP32" primitiveType="permute_ref__f32" runtimePrecision="FP32" />
			<input>
				<port id="0" precision="FP32">
					<dim>-1</dim>
					<dim>12</dim>
					<dim>-1</dim>
					<dim>64</dim>
				</port>
			</input>
			<output>
				<port id="1" precision="FP32">
					<dim>-1</dim>
					<dim>-1</dim>
					<dim>12</dim>
					<dim>64</dim>
				</port>
			</output>
		</layer>
		<layer id="210" name="Reshape_582" type="Reshape">
			<data execOrder="590" execTimeMcs="not_executed" originalLayersNames="Reshape_582" outputLayouts="bfyx" outputPrecisions="FP32" primitiveType="undef" runtimePrecision="FP32" />
			<input>
				<port id="0" precision="FP32">
					<dim>-1</dim>
					<dim>-1</dim>
					<dim>12</dim>
					<dim>64</dim>
				</port>
			</input>
			<output>
				<port id="1" precision="FP32">
					<dim>-1</dim>
					<dim>-1</dim>
					<dim>768</dim>
				</port>
			</output>
		</layer>
		<layer id="211" name="MatMul_583" type="FullyConnected">
			<data execOrder="591" execTimeMcs="19742" originalLayersNames="MatMul_583" outputLayouts="bfyx" outputPrecisions="FP32" primitiveType="fully_connected_gpu_bfyx_ref__f32" runtimePrecision="FP32" />
			<input>
				<port id="0" precision="FP32">
					<dim>-1</dim>
					<dim>-1</dim>
					<dim>768</dim>
				</port>
			</input>
			<output>
				<port id="1" precision="FP32">
					<dim>-1</dim>
					<dim>-1</dim>
					<dim>768</dim>
				</port>
			</output>
		</layer>
		<layer id="212" name="Add_584" type="Eltwise">
			<data execOrder="592" execTimeMcs="35" originalLayersNames="Add_584,Add_585" outputLayouts="bfyx" outputPrecisions="FP32" primitiveType="generic_eltwise_ref__f32" runtimePrecision="FP32" />
			<input>
				<port id="0" precision="FP32">
					<dim>-1</dim>
					<dim>-1</dim>
					<dim>768</dim>
				</port>
				<port id="1" precision="FP32">
					<dim>-1</dim>
					<dim>-1</dim>
					<dim>768</dim>
				</port>
			</input>
			<output>
				<port id="2" precision="FP32">
					<dim>-1</dim>
					<dim>-1</dim>
					<dim>768</dim>
				</port>
			</output>
		</layer>
		<layer id="213" name="Div_594" type="MVN">
			<data execOrder="593" execTimeMcs="100" originalLayersNames="Div_594" outputLayouts="bfyx" outputPrecisions="FP32" primitiveType="mvn_gpu_ref__f32" runtimePrecision="FP32" />
			<input>
				<port id="0" precision="FP32">
					<dim>-1</dim>
					<dim>-1</dim>
					<dim>768</dim>
				</port>
			</input>
			<output>
				<port id="1" precision="FP32">
					<dim>-1</dim>
					<dim>-1</dim>
					<dim>768</dim>
				</port>
			</output>
		</layer>
		<layer id="214" name="Mul_595" type="Eltwise">
			<data execOrder="594" execTimeMcs="20" originalLayersNames="Mul_595,Add_596" outputLayouts="bfyx" outputPrecisions="FP32" primitiveType="generic_eltwise_ref__f32" runtimePrecision="FP32" />
			<input>
				<port id="0" precision="FP32">
					<dim>-1</dim>
					<dim>-1</dim>
					<dim>768</dim>
				</port>
			</input>
			<output>
				<port id="1" precision="FP32">
					<dim>-1</dim>
					<dim>-1</dim>
					<dim>768</dim>
				</port>
				<port id="2" precision="FP32">
					<dim>-1</dim>
					<dim>-1</dim>
					<dim>768</dim>
				</port>
			</output>
		</layer>
		<layer id="215" name="MatMul_597" type="FullyConnected">
			<data execOrder="595" execTimeMcs="78333" originalLayersNames="MatMul_597" outputLayouts="bfyx" outputPrecisions="FP32" primitiveType="fully_connected_gpu_bfyx_ref__f32" runtimePrecision="FP32" />
			<input>
				<port id="0" precision="FP32">
					<dim>-1</dim>
					<dim>-1</dim>
					<dim>768</dim>
				</port>
			</input>
			<output>
				<port id="1" precision="FP32">
					<dim>-1</dim>
					<dim>-1</dim>
					<dim>3072</dim>
				</port>
			</output>
		</layer>
		<layer id="216" name="Add_598" type="Eltwise">
			<data execOrder="596" execTimeMcs="161" originalLayersNames="Add_598,Mul_606" outputLayouts="bfyx" outputPrecisions="FP32" primitiveType="generic_eltwise_ref__f32" runtimePrecision="FP32" />
			<input>
				<port id="0" precision="FP32">
					<dim>-1</dim>
					<dim>-1</dim>
					<dim>3072</dim>
				</port>
			</input>
			<output>
				<port id="1" precision="FP32">
					<dim>-1</dim>
					<dim>-1</dim>
					<dim>3072</dim>
				</port>
			</output>
		</layer>
		<layer id="217" name="MatMul_607" type="FullyConnected">
			<data execOrder="597" execTimeMcs="78357" originalLayersNames="MatMul_607" outputLayouts="bfyx" outputPrecisions="FP32" primitiveType="fully_connected_gpu_bfyx_ref__f32" runtimePrecision="FP32" />
			<input>
				<port id="0" precision="FP32">
					<dim>-1</dim>
					<dim>-1</dim>
					<dim>3072</dim>
				</port>
			</input>
			<output>
				<port id="1" precision="FP32">
					<dim>-1</dim>
					<dim>-1</dim>
					<dim>768</dim>
				</port>
			</output>
		</layer>
		<layer id="218" name="Add_608" type="Eltwise">
			<data execOrder="598" execTimeMcs="35" originalLayersNames="Add_608,Add_609" outputLayouts="bfyx" outputPrecisions="FP32" primitiveType="generic_eltwise_ref__f32" runtimePrecision="FP32" />
			<input>
				<port id="0" precision="FP32">
					<dim>-1</dim>
					<dim>-1</dim>
					<dim>768</dim>
				</port>
				<port id="1" precision="FP32">
					<dim>-1</dim>
					<dim>-1</dim>
					<dim>768</dim>
				</port>
			</input>
			<output>
				<port id="2" precision="FP32">
					<dim>-1</dim>
					<dim>-1</dim>
					<dim>768</dim>
				</port>
			</output>
		</layer>
		<layer id="219" name="Div_618" type="MVN">
			<data execOrder="599" execTimeMcs="98" originalLayersNames="Div_618" outputLayouts="bfyx" outputPrecisions="FP32" primitiveType="mvn_gpu_ref__f32" runtimePrecision="FP32" />
			<input>
				<port id="0" precision="FP32">
					<dim>-1</dim>
					<dim>-1</dim>
					<dim>768</dim>
				</port>
			</input>
			<output>
				<port id="1" precision="FP32">
					<dim>-1</dim>
					<dim>-1</dim>
					<dim>768</dim>
				</port>
			</output>
		</layer>
		<layer id="220" name="Mul_619" type="Eltwise">
			<data execOrder="600" execTimeMcs="20" originalLayersNames="Mul_619,Add_620" outputLayouts="bfyx" outputPrecisions="FP32" primitiveType="generic_eltwise_ref__f32" runtimePrecision="FP32" />
			<input>
				<port id="0" precision="FP32">
					<dim>-1</dim>
					<dim>-1</dim>
					<dim>768</dim>
				</port>
			</input>
			<output>
				<port id="1" precision="FP32">
					<dim>-1</dim>
					<dim>-1</dim>
					<dim>768</dim>
				</port>
				<port id="2" precision="FP32">
					<dim>-1</dim>
					<dim>-1</dim>
					<dim>768</dim>
				</port>
				<port id="3" precision="FP32">
					<dim>-1</dim>
					<dim>-1</dim>
					<dim>768</dim>
				</port>
				<port id="4" precision="FP32">
					<dim>-1</dim>
					<dim>-1</dim>
					<dim>768</dim>
				</port>
			</output>
		</layer>
		<layer id="221" name="MatMul_621" type="FullyConnected">
			<data execOrder="603" execTimeMcs="19684" originalLayersNames="MatMul_621" outputLayouts="bfyx" outputPrecisions="FP32" primitiveType="fully_connected_gpu_bfyx_ref__f32" runtimePrecision="FP32" />
			<input>
				<port id="0" precision="FP32">
					<dim>-1</dim>
					<dim>-1</dim>
					<dim>768</dim>
				</port>
			</input>
			<output>
				<port id="1" precision="FP32">
					<dim>-1</dim>
					<dim>-1</dim>
					<dim>768</dim>
				</port>
			</output>
		</layer>
		<layer id="222" name="Add_622" type="Eltwise">
			<data execOrder="606" execTimeMcs="55" originalLayersNames="Add_622" outputLayouts="bfyx" outputPrecisions="FP32" primitiveType="generic_eltwise_ref__f32" runtimePrecision="FP32" />
			<input>
				<port id="0" precision="FP32">
					<dim>-1</dim>
					<dim>-1</dim>
					<dim>768</dim>
				</port>
			</input>
			<output>
				<port id="1" precision="FP32">
					<dim>-1</dim>
					<dim>-1</dim>
					<dim>768</dim>
				</port>
			</output>
		</layer>
		<layer id="223" name="Reshape_657" type="Reshape">
			<data execOrder="609" execTimeMcs="not_executed" originalLayersNames="Reshape_657" outputLayouts="bfyx" outputPrecisions="FP32" primitiveType="undef" runtimePrecision="FP32" />
			<input>
				<port id="0" precision="FP32">
					<dim>-1</dim>
					<dim>-1</dim>
					<dim>768</dim>
				</port>
			</input>
			<output>
				<port id="1" precision="FP32">
					<dim>-1</dim>
					<dim>-1</dim>
					<dim>12</dim>
					<dim>64</dim>
				</port>
			</output>
		</layer>
		<layer id="224" name="Transpose_658" type="Permute">
			<data execOrder="612" execTimeMcs="16" originalLayersNames="Transpose_658" outputLayouts="bfyx" outputPrecisions="FP32" primitiveType="permute_ref__f32" runtimePrecision="FP32" />
			<input>
				<port id="0" precision="FP32">
					<dim>-1</dim>
					<dim>-1</dim>
					<dim>12</dim>
					<dim>64</dim>
				</port>
			</input>
			<output>
				<port id="1" precision="FP32">
					<dim>-1</dim>
					<dim>12</dim>
					<dim>-1</dim>
					<dim>64</dim>
				</port>
			</output>
		</layer>
		<layer id="225" name="MatMul_623" type="FullyConnected">
			<data execOrder="602" execTimeMcs="19703" originalLayersNames="MatMul_623" outputLayouts="bfyx" outputPrecisions="FP32" primitiveType="fully_connected_gpu_bfyx_ref__f32" runtimePrecision="FP32" />
			<input>
				<port id="0" precision="FP32">
					<dim>-1</dim>
					<dim>-1</dim>
					<dim>768</dim>
				</port>
			</input>
			<output>
				<port id="1" precision="FP32">
					<dim>-1</dim>
					<dim>-1</dim>
					<dim>768</dim>
				</port>
			</output>
		</layer>
		<layer id="226" name="Add_624" type="Eltwise">
			<data execOrder="605" execTimeMcs="21" originalLayersNames="Add_624" outputLayouts="bfyx" outputPrecisions="FP32" primitiveType="generic_eltwise_ref__f32" runtimePrecision="FP32" />
			<input>
				<port id="0" precision="FP32">
					<dim>-1</dim>
					<dim>-1</dim>
					<dim>768</dim>
				</port>
			</input>
			<output>
				<port id="1" precision="FP32">
					<dim>-1</dim>
					<dim>-1</dim>
					<dim>768</dim>
				</port>
			</output>
		</layer>
		<layer id="227" name="Reshape_634" type="Reshape">
			<data execOrder="608" execTimeMcs="not_executed" originalLayersNames="Reshape_634" outputLayouts="bfyx" outputPrecisions="FP32" primitiveType="undef" runtimePrecision="FP32" />
			<input>
				<port id="0" precision="FP32">
					<dim>-1</dim>
					<dim>-1</dim>
					<dim>768</dim>
				</port>
			</input>
			<output>
				<port id="1" precision="FP32">
					<dim>-1</dim>
					<dim>-1</dim>
					<dim>12</dim>
					<dim>64</dim>
				</port>
			</output>
		</layer>
		<layer id="228" name="Transpose_659" type="Permute">
			<data execOrder="611" execTimeMcs="43" originalLayersNames="Transpose_659,Div_662_copy" outputLayouts="bfyx" outputPrecisions="FP32" primitiveType="permute_ref__f32" runtimePrecision="FP32" />
			<input>
				<port id="0" precision="FP32">
					<dim>-1</dim>
					<dim>-1</dim>
					<dim>12</dim>
					<dim>64</dim>
				</port>
			</input>
			<output>
				<port id="1" precision="FP32">
					<dim>-1</dim>
					<dim>12</dim>
					<dim>64</dim>
					<dim>-1</dim>
				</port>
			</output>
		</layer>
		<layer id="229" name="MatMul_660" type="Gemm">
			<data execOrder="613" execTimeMcs="413" originalLayersNames="MatMul_660,Add_663" outputLayouts="bfyx" outputPrecisions="FP32" primitiveType="gemm_ref__f32" runtimePrecision="FP32" />
			<input>
				<port id="0" precision="FP32">
					<dim>-1</dim>
					<dim>12</dim>
					<dim>-1</dim>
					<dim>64</dim>
				</port>
				<port id="1" precision="FP32">
					<dim>-1</dim>
					<dim>12</dim>
					<dim>64</dim>
					<dim>-1</dim>
				</port>
				<port id="2" precision="FP32">
					<dim>1</dim>
					<dim>1</dim>
					<dim>1</dim>
					<dim>-1</dim>
				</port>
			</input>
			<output>
				<port id="3" precision="FP32">
					<dim>-1</dim>
					<dim>12</dim>
					<dim>-1</dim>
					<dim>-1</dim>
				</port>
				<port id="4" precision="FP32">
					<dim>-1</dim>
					<dim>12</dim>
					<dim>-1</dim>
					<dim>-1</dim>
				</port>
			</output>
		</layer>
		<layer id="230" name="Softmax_664/FlattenONNX_/input_shape" type="shape_of">
			<data execOrder="614" execTimeMcs="2" originalLayersNames="Softmax_664/FlattenONNX_/input_shape" outputLayouts="bfyx" outputPrecisions="I32" primitiveType="shape_of_ref__f32" runtimePrecision="FP32" />
			<input>
				<port id="0" precision="FP32">
					<dim>-1</dim>
					<dim>12</dim>
					<dim>-1</dim>
					<dim>-1</dim>
				</port>
			</input>
			<output>
				<port id="1" precision="I32">
					<dim>4</dim>
				</port>
				<port id="2" precision="I32">
					<dim>4</dim>
				</port>
			</output>
		</layer>
		<layer id="231" name="Softmax_664/FlattenONNX_/input_shape/Gather" type="Gather">
			<data execOrder="615" execTimeMcs="2" originalLayersNames="Softmax_664/FlattenONNX_/input_shape/Gather" outputLayouts="bfyx" outputPrecisions="I32" primitiveType="gather_ref__i32" runtimePrecision="I32" />
			<input>
				<port id="0" precision="I32">
					<dim>4</dim>
				</port>
			</input>
			<output>
				<port id="1" precision="I32">
					<dim>3</dim>
				</port>
			</output>
		</layer>
		<layer id="232" name="Softmax_664/FlattenONNX_/first_dims" type="Reduce">
			<data execOrder="616" execTimeMcs="1" originalLayersNames="Softmax_664/FlattenONNX_/first_dims" outputLayouts="bfyx" outputPrecisions="I32" primitiveType="reduce_ref__i32" runtimePrecision="I32" />
			<input>
				<port id="0" precision="I32">
					<dim>3</dim>
				</port>
			</input>
			<output>
				<port id="1" precision="I32">
					<dim>1</dim>
				</port>
			</output>
		</layer>
		<layer id="233" name="Softmax_664/FlattenONNX_/first_dims/shapes_concat" type="Concat">
			<data execOrder="617" execTimeMcs="3" originalLayersNames="Softmax_664/FlattenONNX_/first_dims/shapes_concat" outputLayouts="bfyx" outputPrecisions="I32" primitiveType="concatenation_gpu_simple_ref__i32" runtimePrecision="I32" />
			<input>
				<port id="0" precision="I32">
					<dim>1</dim>
				</port>
			</input>
			<output>
				<port id="1" precision="I32">
					<dim>2</dim>
				</port>
			</output>
		</layer>
		<layer id="234" name="Softmax_664/FlattenONNX_/Reshape" type="Reshape">
			<data execOrder="618" execTimeMcs="not_executed" originalLayersNames="Softmax_664/FlattenONNX_/Reshape" outputLayouts="bfyx" outputPrecisions="FP32" primitiveType="undef" runtimePrecision="FP32" />
			<input>
				<port id="0" precision="FP32">
					<dim>-1</dim>
					<dim>12</dim>
					<dim>-1</dim>
					<dim>-1</dim>
				</port>
				<port id="1" precision="I32">
					<dim>2</dim>
				</port>
			</input>
			<output>
				<port id="2" precision="FP32">
					<dim>-1</dim>
					<dim>-1</dim>
				</port>
			</output>
		</layer>
		<layer id="235" name="Softmax_664/Softmax_" type="SoftMax">
			<data execOrder="619" execTimeMcs="538" originalLayersNames="Softmax_664/Softmax_" outputLayouts="bfyx" outputPrecisions="FP32" primitiveType="softmax_gpu_ref__f32" runtimePrecision="FP32" />
			<input>
				<port id="0" precision="FP32">
					<dim>-1</dim>
					<dim>-1</dim>
				</port>
			</input>
			<output>
				<port id="1" precision="FP32">
					<dim>-1</dim>
					<dim>-1</dim>
				</port>
			</output>
		</layer>
		<layer id="236" name="Softmax_664" type="Reshape">
			<data execOrder="620" execTimeMcs="not_executed" originalLayersNames="Softmax_664" outputLayouts="bfyx" outputPrecisions="FP32" primitiveType="undef" runtimePrecision="FP32" />
			<input>
				<port id="0" precision="FP32">
					<dim>-1</dim>
					<dim>-1</dim>
				</port>
				<port id="1" precision="I32">
					<dim>4</dim>
				</port>
			</input>
			<output>
				<port id="2" precision="FP32">
					<dim>-1</dim>
					<dim>12</dim>
					<dim>-1</dim>
					<dim>-1</dim>
				</port>
			</output>
		</layer>
		<layer id="237" name="MatMul_635" type="FullyConnected">
			<data execOrder="601" execTimeMcs="19684" originalLayersNames="MatMul_635" outputLayouts="bfyx" outputPrecisions="FP32" primitiveType="fully_connected_gpu_bfyx_ref__f32" runtimePrecision="FP32" />
			<input>
				<port id="0" precision="FP32">
					<dim>-1</dim>
					<dim>-1</dim>
					<dim>768</dim>
				</port>
			</input>
			<output>
				<port id="1" precision="FP32">
					<dim>-1</dim>
					<dim>-1</dim>
					<dim>768</dim>
				</port>
			</output>
		</layer>
		<layer id="238" name="Add_636" type="Eltwise">
			<data execOrder="604" execTimeMcs="20" originalLayersNames="Add_636" outputLayouts="bfyx" outputPrecisions="FP32" primitiveType="generic_eltwise_ref__f32" runtimePrecision="FP32" />
			<input>
				<port id="0" precision="FP32">
					<dim>-1</dim>
					<dim>-1</dim>
					<dim>768</dim>
				</port>
			</input>
			<output>
				<port id="1" precision="FP32">
					<dim>-1</dim>
					<dim>-1</dim>
					<dim>768</dim>
				</port>
			</output>
		</layer>
		<layer id="239" name="Reshape_646" type="Reshape">
			<data execOrder="607" execTimeMcs="not_executed" originalLayersNames="Reshape_646" outputLayouts="bfyx" outputPrecisions="FP32" primitiveType="undef" runtimePrecision="FP32" />
			<input>
				<port id="0" precision="FP32">
					<dim>-1</dim>
					<dim>-1</dim>
					<dim>768</dim>
				</port>
			</input>
			<output>
				<port id="1" precision="FP32">
					<dim>-1</dim>
					<dim>-1</dim>
					<dim>12</dim>
					<dim>64</dim>
				</port>
			</output>
		</layer>
		<layer id="240" name="Transpose_647" type="Permute">
			<data execOrder="610" execTimeMcs="25" originalLayersNames="Transpose_647" outputLayouts="bfyx" outputPrecisions="FP32" primitiveType="permute_ref__f32" runtimePrecision="FP32" />
			<input>
				<port id="0" precision="FP32">
					<dim>-1</dim>
					<dim>-1</dim>
					<dim>12</dim>
					<dim>64</dim>
				</port>
			</input>
			<output>
				<port id="1" precision="FP32">
					<dim>-1</dim>
					<dim>12</dim>
					<dim>-1</dim>
					<dim>64</dim>
				</port>
			</output>
		</layer>
		<layer id="241" name="MatMul_665" type="Gemm">
			<data execOrder="621" execTimeMcs="448" originalLayersNames="MatMul_665" outputLayouts="bfyx" outputPrecisions="FP32" primitiveType="gemm_ref__f32" runtimePrecision="FP32" />
			<input>
				<port id="0" precision="FP32">
					<dim>-1</dim>
					<dim>12</dim>
					<dim>-1</dim>
					<dim>-1</dim>
				</port>
				<port id="1" precision="FP32">
					<dim>-1</dim>
					<dim>12</dim>
					<dim>-1</dim>
					<dim>64</dim>
				</port>
			</input>
			<output>
				<port id="2" precision="FP32">
					<dim>-1</dim>
					<dim>12</dim>
					<dim>-1</dim>
					<dim>64</dim>
				</port>
			</output>
		</layer>
		<layer id="242" name="Transpose_666" type="Permute">
			<data execOrder="622" execTimeMcs="49" originalLayersNames="Transpose_666" outputLayouts="bfyx" outputPrecisions="FP32" primitiveType="permute_ref__f32" runtimePrecision="FP32" />
			<input>
				<port id="0" precision="FP32">
					<dim>-1</dim>
					<dim>12</dim>
					<dim>-1</dim>
					<dim>64</dim>
				</port>
			</input>
			<output>
				<port id="1" precision="FP32">
					<dim>-1</dim>
					<dim>-1</dim>
					<dim>12</dim>
					<dim>64</dim>
				</port>
			</output>
		</layer>
		<layer id="243" name="Reshape_676" type="Reshape">
			<data execOrder="623" execTimeMcs="not_executed" originalLayersNames="Reshape_676" outputLayouts="bfyx" outputPrecisions="FP32" primitiveType="undef" runtimePrecision="FP32" />
			<input>
				<port id="0" precision="FP32">
					<dim>-1</dim>
					<dim>-1</dim>
					<dim>12</dim>
					<dim>64</dim>
				</port>
			</input>
			<output>
				<port id="1" precision="FP32">
					<dim>-1</dim>
					<dim>-1</dim>
					<dim>768</dim>
				</port>
			</output>
		</layer>
		<layer id="244" name="MatMul_677" type="FullyConnected">
			<data execOrder="624" execTimeMcs="19772" originalLayersNames="MatMul_677" outputLayouts="bfyx" outputPrecisions="FP32" primitiveType="fully_connected_gpu_bfyx_ref__f32" runtimePrecision="FP32" />
			<input>
				<port id="0" precision="FP32">
					<dim>-1</dim>
					<dim>-1</dim>
					<dim>768</dim>
				</port>
			</input>
			<output>
				<port id="1" precision="FP32">
					<dim>-1</dim>
					<dim>-1</dim>
					<dim>768</dim>
				</port>
			</output>
		</layer>
		<layer id="245" name="Add_678" type="Eltwise">
			<data execOrder="625" execTimeMcs="28" originalLayersNames="Add_678,Add_679" outputLayouts="bfyx" outputPrecisions="FP32" primitiveType="generic_eltwise_ref__f32" runtimePrecision="FP32" />
			<input>
				<port id="0" precision="FP32">
					<dim>-1</dim>
					<dim>-1</dim>
					<dim>768</dim>
				</port>
				<port id="1" precision="FP32">
					<dim>-1</dim>
					<dim>-1</dim>
					<dim>768</dim>
				</port>
			</input>
			<output>
				<port id="2" precision="FP32">
					<dim>-1</dim>
					<dim>-1</dim>
					<dim>768</dim>
				</port>
			</output>
		</layer>
		<layer id="246" name="Div_688" type="MVN">
			<data execOrder="626" execTimeMcs="97" originalLayersNames="Div_688" outputLayouts="bfyx" outputPrecisions="FP32" primitiveType="mvn_gpu_ref__f32" runtimePrecision="FP32" />
			<input>
				<port id="0" precision="FP32">
					<dim>-1</dim>
					<dim>-1</dim>
					<dim>768</dim>
				</port>
			</input>
			<output>
				<port id="1" precision="FP32">
					<dim>-1</dim>
					<dim>-1</dim>
					<dim>768</dim>
				</port>
			</output>
		</layer>
		<layer id="247" name="Mul_689" type="Eltwise">
			<data execOrder="627" execTimeMcs="20" originalLayersNames="Mul_689,Add_690" outputLayouts="bfyx" outputPrecisions="FP32" primitiveType="generic_eltwise_ref__f32" runtimePrecision="FP32" />
			<input>
				<port id="0" precision="FP32">
					<dim>-1</dim>
					<dim>-1</dim>
					<dim>768</dim>
				</port>
			</input>
			<output>
				<port id="1" precision="FP32">
					<dim>-1</dim>
					<dim>-1</dim>
					<dim>768</dim>
				</port>
				<port id="2" precision="FP32">
					<dim>-1</dim>
					<dim>-1</dim>
					<dim>768</dim>
				</port>
			</output>
		</layer>
		<layer id="248" name="MatMul_691" type="FullyConnected">
			<data execOrder="628" execTimeMcs="78335" originalLayersNames="MatMul_691" outputLayouts="bfyx" outputPrecisions="FP32" primitiveType="fully_connected_gpu_bfyx_ref__f32" runtimePrecision="FP32" />
			<input>
				<port id="0" precision="FP32">
					<dim>-1</dim>
					<dim>-1</dim>
					<dim>768</dim>
				</port>
			</input>
			<output>
				<port id="1" precision="FP32">
					<dim>-1</dim>
					<dim>-1</dim>
					<dim>3072</dim>
				</port>
			</output>
		</layer>
		<layer id="249" name="Add_692" type="Eltwise">
			<data execOrder="629" execTimeMcs="163" originalLayersNames="Add_692,Mul_700" outputLayouts="bfyx" outputPrecisions="FP32" primitiveType="generic_eltwise_ref__f32" runtimePrecision="FP32" />
			<input>
				<port id="0" precision="FP32">
					<dim>-1</dim>
					<dim>-1</dim>
					<dim>3072</dim>
				</port>
			</input>
			<output>
				<port id="1" precision="FP32">
					<dim>-1</dim>
					<dim>-1</dim>
					<dim>3072</dim>
				</port>
			</output>
		</layer>
		<layer id="250" name="MatMul_701" type="FullyConnected">
			<data execOrder="630" execTimeMcs="78444" originalLayersNames="MatMul_701" outputLayouts="bfyx" outputPrecisions="FP32" primitiveType="fully_connected_gpu_bfyx_ref__f32" runtimePrecision="FP32" />
			<input>
				<port id="0" precision="FP32">
					<dim>-1</dim>
					<dim>-1</dim>
					<dim>3072</dim>
				</port>
			</input>
			<output>
				<port id="1" precision="FP32">
					<dim>-1</dim>
					<dim>-1</dim>
					<dim>768</dim>
				</port>
			</output>
		</layer>
		<layer id="251" name="Add_702" type="Eltwise">
			<data execOrder="631" execTimeMcs="37" originalLayersNames="Add_702,Add_703" outputLayouts="bfyx" outputPrecisions="FP32" primitiveType="generic_eltwise_ref__f32" runtimePrecision="FP32" />
			<input>
				<port id="0" precision="FP32">
					<dim>-1</dim>
					<dim>-1</dim>
					<dim>768</dim>
				</port>
				<port id="1" precision="FP32">
					<dim>-1</dim>
					<dim>-1</dim>
					<dim>768</dim>
				</port>
			</input>
			<output>
				<port id="2" precision="FP32">
					<dim>-1</dim>
					<dim>-1</dim>
					<dim>768</dim>
				</port>
			</output>
		</layer>
		<layer id="252" name="Div_712" type="MVN">
			<data execOrder="632" execTimeMcs="102" originalLayersNames="Div_712" outputLayouts="bfyx" outputPrecisions="FP32" primitiveType="mvn_gpu_ref__f32" runtimePrecision="FP32" />
			<input>
				<port id="0" precision="FP32">
					<dim>-1</dim>
					<dim>-1</dim>
					<dim>768</dim>
				</port>
			</input>
			<output>
				<port id="1" precision="FP32">
					<dim>-1</dim>
					<dim>-1</dim>
					<dim>768</dim>
				</port>
			</output>
		</layer>
		<layer id="253" name="Mul_713" type="Eltwise">
			<data execOrder="633" execTimeMcs="20" originalLayersNames="Mul_713,Add_714" outputLayouts="bfyx" outputPrecisions="FP32" primitiveType="generic_eltwise_ref__f32" runtimePrecision="FP32" />
			<input>
				<port id="0" precision="FP32">
					<dim>-1</dim>
					<dim>-1</dim>
					<dim>768</dim>
				</port>
			</input>
			<output>
				<port id="1" precision="FP32">
					<dim>-1</dim>
					<dim>-1</dim>
					<dim>768</dim>
				</port>
				<port id="2" precision="FP32">
					<dim>-1</dim>
					<dim>-1</dim>
					<dim>768</dim>
				</port>
				<port id="3" precision="FP32">
					<dim>-1</dim>
					<dim>-1</dim>
					<dim>768</dim>
				</port>
				<port id="4" precision="FP32">
					<dim>-1</dim>
					<dim>-1</dim>
					<dim>768</dim>
				</port>
			</output>
		</layer>
		<layer id="254" name="MatMul_715" type="FullyConnected">
			<data execOrder="636" execTimeMcs="19735" originalLayersNames="MatMul_715" outputLayouts="bfyx" outputPrecisions="FP32" primitiveType="fully_connected_gpu_bfyx_ref__f32" runtimePrecision="FP32" />
			<input>
				<port id="0" precision="FP32">
					<dim>-1</dim>
					<dim>-1</dim>
					<dim>768</dim>
				</port>
			</input>
			<output>
				<port id="1" precision="FP32">
					<dim>-1</dim>
					<dim>-1</dim>
					<dim>768</dim>
				</port>
			</output>
		</layer>
		<layer id="255" name="Add_716" type="Eltwise">
			<data execOrder="639" execTimeMcs="57" originalLayersNames="Add_716" outputLayouts="bfyx" outputPrecisions="FP32" primitiveType="generic_eltwise_ref__f32" runtimePrecision="FP32" />
			<input>
				<port id="0" precision="FP32">
					<dim>-1</dim>
					<dim>-1</dim>
					<dim>768</dim>
				</port>
			</input>
			<output>
				<port id="1" precision="FP32">
					<dim>-1</dim>
					<dim>-1</dim>
					<dim>768</dim>
				</port>
			</output>
		</layer>
		<layer id="256" name="Reshape_751" type="Reshape">
			<data execOrder="642" execTimeMcs="not_executed" originalLayersNames="Reshape_751" outputLayouts="bfyx" outputPrecisions="FP32" primitiveType="undef" runtimePrecision="FP32" />
			<input>
				<port id="0" precision="FP32">
					<dim>-1</dim>
					<dim>-1</dim>
					<dim>768</dim>
				</port>
			</input>
			<output>
				<port id="1" precision="FP32">
					<dim>-1</dim>
					<dim>-1</dim>
					<dim>12</dim>
					<dim>64</dim>
				</port>
			</output>
		</layer>
		<layer id="257" name="Transpose_752" type="Permute">
			<data execOrder="645" execTimeMcs="14" originalLayersNames="Transpose_752" outputLayouts="bfyx" outputPrecisions="FP32" primitiveType="permute_ref__f32" runtimePrecision="FP32" />
			<input>
				<port id="0" precision="FP32">
					<dim>-1</dim>
					<dim>-1</dim>
					<dim>12</dim>
					<dim>64</dim>
				</port>
			</input>
			<output>
				<port id="1" precision="FP32">
					<dim>-1</dim>
					<dim>12</dim>
					<dim>-1</dim>
					<dim>64</dim>
				</port>
			</output>
		</layer>
		<layer id="258" name="MatMul_717" type="FullyConnected">
			<data execOrder="635" execTimeMcs="19701" originalLayersNames="MatMul_717" outputLayouts="bfyx" outputPrecisions="FP32" primitiveType="fully_connected_gpu_bfyx_ref__f32" runtimePrecision="FP32" />
			<input>
				<port id="0" precision="FP32">
					<dim>-1</dim>
					<dim>-1</dim>
					<dim>768</dim>
				</port>
			</input>
			<output>
				<port id="1" precision="FP32">
					<dim>-1</dim>
					<dim>-1</dim>
					<dim>768</dim>
				</port>
			</output>
		</layer>
		<layer id="259" name="Add_718" type="Eltwise">
			<data execOrder="638" execTimeMcs="20" originalLayersNames="Add_718" outputLayouts="bfyx" outputPrecisions="FP32" primitiveType="generic_eltwise_ref__f32" runtimePrecision="FP32" />
			<input>
				<port id="0" precision="FP32">
					<dim>-1</dim>
					<dim>-1</dim>
					<dim>768</dim>
				</port>
			</input>
			<output>
				<port id="1" precision="FP32">
					<dim>-1</dim>
					<dim>-1</dim>
					<dim>768</dim>
				</port>
			</output>
		</layer>
		<layer id="260" name="Reshape_728" type="Reshape">
			<data execOrder="641" execTimeMcs="not_executed" originalLayersNames="Reshape_728" outputLayouts="bfyx" outputPrecisions="FP32" primitiveType="undef" runtimePrecision="FP32" />
			<input>
				<port id="0" precision="FP32">
					<dim>-1</dim>
					<dim>-1</dim>
					<dim>768</dim>
				</port>
			</input>
			<output>
				<port id="1" precision="FP32">
					<dim>-1</dim>
					<dim>-1</dim>
					<dim>12</dim>
					<dim>64</dim>
				</port>
			</output>
		</layer>
		<layer id="261" name="Transpose_753" type="Permute">
			<data execOrder="644" execTimeMcs="55" originalLayersNames="Transpose_753,Div_756_copy" outputLayouts="bfyx" outputPrecisions="FP32" primitiveType="permute_ref__f32" runtimePrecision="FP32" />
			<input>
				<port id="0" precision="FP32">
					<dim>-1</dim>
					<dim>-1</dim>
					<dim>12</dim>
					<dim>64</dim>
				</port>
			</input>
			<output>
				<port id="1" precision="FP32">
					<dim>-1</dim>
					<dim>12</dim>
					<dim>64</dim>
					<dim>-1</dim>
				</port>
			</output>
		</layer>
		<layer id="262" name="MatMul_754" type="Gemm">
			<data execOrder="646" execTimeMcs="431" originalLayersNames="MatMul_754,Add_757" outputLayouts="bfyx" outputPrecisions="FP32" primitiveType="gemm_ref__f32" runtimePrecision="FP32" />
			<input>
				<port id="0" precision="FP32">
					<dim>-1</dim>
					<dim>12</dim>
					<dim>-1</dim>
					<dim>64</dim>
				</port>
				<port id="1" precision="FP32">
					<dim>-1</dim>
					<dim>12</dim>
					<dim>64</dim>
					<dim>-1</dim>
				</port>
				<port id="2" precision="FP32">
					<dim>1</dim>
					<dim>1</dim>
					<dim>1</dim>
					<dim>-1</dim>
				</port>
			</input>
			<output>
				<port id="3" precision="FP32">
					<dim>-1</dim>
					<dim>12</dim>
					<dim>-1</dim>
					<dim>-1</dim>
				</port>
				<port id="4" precision="FP32">
					<dim>-1</dim>
					<dim>12</dim>
					<dim>-1</dim>
					<dim>-1</dim>
				</port>
			</output>
		</layer>
		<layer id="263" name="Softmax_758/FlattenONNX_/input_shape" type="shape_of">
			<data execOrder="647" execTimeMcs="2" originalLayersNames="Softmax_758/FlattenONNX_/input_shape" outputLayouts="bfyx" outputPrecisions="I32" primitiveType="shape_of_ref__f32" runtimePrecision="FP32" />
			<input>
				<port id="0" precision="FP32">
					<dim>-1</dim>
					<dim>12</dim>
					<dim>-1</dim>
					<dim>-1</dim>
				</port>
			</input>
			<output>
				<port id="1" precision="I32">
					<dim>4</dim>
				</port>
				<port id="2" precision="I32">
					<dim>4</dim>
				</port>
			</output>
		</layer>
		<layer id="264" name="Softmax_758/FlattenONNX_/input_shape/Gather" type="Gather">
			<data execOrder="648" execTimeMcs="2" originalLayersNames="Softmax_758/FlattenONNX_/input_shape/Gather" outputLayouts="bfyx" outputPrecisions="I32" primitiveType="gather_ref__i32" runtimePrecision="I32" />
			<input>
				<port id="0" precision="I32">
					<dim>4</dim>
				</port>
			</input>
			<output>
				<port id="1" precision="I32">
					<dim>3</dim>
				</port>
			</output>
		</layer>
		<layer id="265" name="Softmax_758/FlattenONNX_/first_dims" type="Reduce">
			<data execOrder="649" execTimeMcs="1" originalLayersNames="Softmax_758/FlattenONNX_/first_dims" outputLayouts="bfyx" outputPrecisions="I32" primitiveType="reduce_ref__i32" runtimePrecision="I32" />
			<input>
				<port id="0" precision="I32">
					<dim>3</dim>
				</port>
			</input>
			<output>
				<port id="1" precision="I32">
					<dim>1</dim>
				</port>
			</output>
		</layer>
		<layer id="266" name="Softmax_758/FlattenONNX_/first_dims/shapes_concat" type="Concat">
			<data execOrder="650" execTimeMcs="3" originalLayersNames="Softmax_758/FlattenONNX_/first_dims/shapes_concat" outputLayouts="bfyx" outputPrecisions="I32" primitiveType="concatenation_gpu_simple_ref__i32" runtimePrecision="I32" />
			<input>
				<port id="0" precision="I32">
					<dim>1</dim>
				</port>
			</input>
			<output>
				<port id="1" precision="I32">
					<dim>2</dim>
				</port>
			</output>
		</layer>
		<layer id="267" name="Softmax_758/FlattenONNX_/Reshape" type="Reshape">
			<data execOrder="651" execTimeMcs="not_executed" originalLayersNames="Softmax_758/FlattenONNX_/Reshape" outputLayouts="bfyx" outputPrecisions="FP32" primitiveType="undef" runtimePrecision="FP32" />
			<input>
				<port id="0" precision="FP32">
					<dim>-1</dim>
					<dim>12</dim>
					<dim>-1</dim>
					<dim>-1</dim>
				</port>
				<port id="1" precision="I32">
					<dim>2</dim>
				</port>
			</input>
			<output>
				<port id="2" precision="FP32">
					<dim>-1</dim>
					<dim>-1</dim>
				</port>
			</output>
		</layer>
		<layer id="268" name="Softmax_758/Softmax_" type="SoftMax">
			<data execOrder="652" execTimeMcs="552" originalLayersNames="Softmax_758/Softmax_" outputLayouts="bfyx" outputPrecisions="FP32" primitiveType="softmax_gpu_ref__f32" runtimePrecision="FP32" />
			<input>
				<port id="0" precision="FP32">
					<dim>-1</dim>
					<dim>-1</dim>
				</port>
			</input>
			<output>
				<port id="1" precision="FP32">
					<dim>-1</dim>
					<dim>-1</dim>
				</port>
			</output>
		</layer>
		<layer id="269" name="Softmax_758" type="Reshape">
…
		<layer id="399" name="Softmax_1134/FlattenONNX_/Reshape" type="Reshape">
			<data execOrder="783" execTimeMcs="not_executed" originalLayersNames="Softmax_1134/FlattenONNX_/Reshape" outputLayouts="bfyx" outputPrecisions="FP32" primitiveType="undef" runtimePrecision="FP32" />
			<input>
				<port id="0" precision="FP32">
					<dim>-1</dim>
					<dim>12</dim>
					<dim>-1</dim>
					<dim>-1</dim>
				</port>
				<port id="1" precision="I32">
					<dim>2</dim>
				</port>
			</input>
			<output>
				<port id="2" precision="FP32">
					<dim>-1</dim>
					<dim>-1</dim>
				</port>
			</output>
		</layer>
		<layer id="400" name="Softmax_1134/Softmax_" type="SoftMax">
			<data execOrder="784" execTimeMcs="537" originalLayersNames="Softmax_1134/Softmax_" outputLayouts="bfyx" outputPrecisions="FP32" primitiveType="softmax_gpu_ref__f32" runtimePrecision="FP32" />
			<input>
				<port id="0" precision="FP32">
					<dim>-1</dim>
					<dim>-1</dim>
				</port>
			</input>
			<output>
				<port id="1" precision="FP32">
					<dim>-1</dim>
					<dim>-1</dim>
				</port>
			</output>
		</layer>
		<layer id="401" name="Softmax_1134" type="Reshape">
			<data execOrder="785" execTimeMcs="not_executed" originalLayersNames="Softmax_1134" outputLayouts="bfyx" outputPrecisions="FP32" primitiveType="undef" runtimePrecision="FP32" />
			<input>
				<port id="0" precision="FP32">
					<dim>-1</dim>
					<dim>-1</dim>
				</port>
				<port id="1" precision="I32">
					<dim>4</dim>
				</port>
			</input>
			<output>
				<port id="2" precision="FP32">
					<dim>-1</dim>
					<dim>12</dim>
					<dim>-1</dim>
					<dim>-1</dim>
				</port>
			</output>
		</layer>
		<layer id="402" name="MatMul_1105" type="FullyConnected">
			<data execOrder="766" execTimeMcs="19719" originalLayersNames="MatMul_1105" outputLayouts="bfyx" outputPrecisions="FP32" primitiveType="fully_connected_gpu_bfyx_ref__f32" runtimePrecision="FP32" />
			<input>
				<port id="0" precision="FP32">
					<dim>-1</dim>
					<dim>-1</dim>
					<dim>768</dim>
				</port>
			</input>
			<output>
				<port id="1" precision="FP32">
					<dim>-1</dim>
					<dim>-1</dim>
					<dim>768</dim>
				</port>
			</output>
		</layer>
		<layer id="403" name="Add_1106" type="Eltwise">
			<data execOrder="769" execTimeMcs="27" originalLayersNames="Add_1106" outputLayouts="bfyx" outputPrecisions="FP32" primitiveType="generic_eltwise_ref__f32" runtimePrecision="FP32" />
			<input>
				<port id="0" precision="FP32">
					<dim>-1</dim>
					<dim>-1</dim>
					<dim>768</dim>
				</port>
			</input>
			<output>
				<port id="1" precision="FP32">
					<dim>-1</dim>
					<dim>-1</dim>
					<dim>768</dim>
				</port>
			</output>
		</layer>
		<layer id="404" name="Reshape_1116" type="Reshape">
			<data execOrder="772" execTimeMcs="not_executed" originalLayersNames="Reshape_1116" outputLayouts="bfyx" outputPrecisions="FP32" primitiveType="undef" runtimePrecision="FP32" />
			<input>
				<port id="0" precision="FP32">
					<dim>-1</dim>
					<dim>-1</dim>
					<dim>768</dim>
				</port>
			</input>
			<output>
				<port id="1" precision="FP32">
					<dim>-1</dim>
					<dim>-1</dim>
					<dim>12</dim>
					<dim>64</dim>
				</port>
			</output>
		</layer>
		<layer id="405" name="Transpose_1117" type="Permute">
			<data execOrder="775" execTimeMcs="23" originalLayersNames="Transpose_1117" outputLayouts="bfyx" outputPrecisions="FP32" primitiveType="permute_ref__f32" runtimePrecision="FP32" />
			<input>
				<port id="0" precision="FP32">
					<dim>-1</dim>
					<dim>-1</dim>
					<dim>12</dim>
					<dim>64</dim>
				</port>
			</input>
			<output>
				<port id="1" precision="FP32">
					<dim>-1</dim>
					<dim>12</dim>
					<dim>-1</dim>
					<dim>64</dim>
				</port>
			</output>
		</layer>
		<layer id="406" name="MatMul_1135" type="Gemm">
			<data execOrder="786" execTimeMcs="435" originalLayersNames="MatMul_1135" outputLayouts="bfyx" outputPrecisions="FP32" primitiveType="gemm_ref__f32" runtimePrecision="FP32" />
			<input>
				<port id="0" precision="FP32">
					<dim>-1</dim>
					<dim>12</dim>
					<dim>-1</dim>
					<dim>-1</dim>
				</port>
				<port id="1" precision="FP32">
					<dim>-1</dim>
					<dim>12</dim>
					<dim>-1</dim>
					<dim>64</dim>
				</port>
			</input>
			<output>
				<port id="2" precision="FP32">
					<dim>-1</dim>
					<dim>12</dim>
					<dim>-1</dim>
					<dim>64</dim>
				</port>
			</output>
		</layer>
		<layer id="407" name="Transpose_1136" type="Permute">
			<data execOrder="787" execTimeMcs="47" originalLayersNames="Transpose_1136" outputLayouts="bfyx" outputPrecisions="FP32" primitiveType="permute_ref__f32" runtimePrecision="FP32" />
			<input>
				<port id="0" precision="FP32">
					<dim>-1</dim>
					<dim>12</dim>
					<dim>-1</dim>
					<dim>64</dim>
				</port>
			</input>
			<output>
				<port id="1" precision="FP32">
					<dim>-1</dim>
					<dim>-1</dim>
					<dim>12</dim>
					<dim>64</dim>
				</port>
			</output>
		</layer>
		<layer id="408" name="Reshape_1146" type="Reshape">
			<data execOrder="788" execTimeMcs="not_executed" originalLayersNames="Reshape_1146" outputLayouts="bfyx" outputPrecisions="FP32" primitiveType="undef" runtimePrecision="FP32" />
			<input>
				<port id="0" precision="FP32">
					<dim>-1</dim>
					<dim>-1</dim>
					<dim>12</dim>
					<dim>64</dim>
				</port>
			</input>
			<output>
				<port id="1" precision="FP32">
					<dim>-1</dim>
					<dim>-1</dim>
					<dim>768</dim>
				</port>
			</output>
		</layer>
		<layer id="409" name="MatMul_1147" type="FullyConnected">
			<data execOrder="789" execTimeMcs="19718" originalLayersNames="MatMul_1147" outputLayouts="bfyx" outputPrecisions="FP32" primitiveType="fully_connected_gpu_bfyx_ref__f32" runtimePrecision="FP32" />
			<input>
				<port id="0" precision="FP32">
					<dim>-1</dim>
					<dim>-1</dim>
					<dim>768</dim>
				</port>
			</input>
			<output>
				<port id="1" precision="FP32">
					<dim>-1</dim>
					<dim>-1</dim>
					<dim>768</dim>
				</port>
			</output>
		</layer>
		<layer id="410" name="Add_1148" type="Eltwise">
			<data execOrder="790" execTimeMcs="28" originalLayersNames="Add_1148,Add_1149" outputLayouts="bfyx" outputPrecisions="FP32" primitiveType="generic_eltwise_ref__f32" runtimePrecision="FP32" />
			<input>
				<port id="0" precision="FP32">
					<dim>-1</dim>
					<dim>-1</dim>
					<dim>768</dim>
				</port>
				<port id="1" precision="FP32">
					<dim>-1</dim>
					<dim>-1</dim>
					<dim>768</dim>
				</port>
			</input>
			<output>
				<port id="2" precision="FP32">
					<dim>-1</dim>
					<dim>-1</dim>
					<dim>768</dim>
				</port>
			</output>
		</layer>
		<layer id="411" name="Div_1158" type="MVN">
			<data execOrder="791" execTimeMcs="102" originalLayersNames="Div_1158" outputLayouts="bfyx" outputPrecisions="FP32" primitiveType="mvn_gpu_ref__f32" runtimePrecision="FP32" />
			<input>
				<port id="0" precision="FP32">
					<dim>-1</dim>
					<dim>-1</dim>
					<dim>768</dim>
				</port>
			</input>
			<output>
				<port id="1" precision="FP32">
					<dim>-1</dim>
					<dim>-1</dim>
					<dim>768</dim>
				</port>
			</output>
		</layer>
		<layer id="412" name="Mul_1159" type="Eltwise">
			<data execOrder="792" execTimeMcs="21" originalLayersNames="Mul_1159,Add_1160" outputLayouts="bfyx" outputPrecisions="FP32" primitiveType="generic_eltwise_ref__f32" runtimePrecision="FP32" />
			<input>
				<port id="0" precision="FP32">
					<dim>-1</dim>
					<dim>-1</dim>
					<dim>768</dim>
				</port>
			</input>
			<output>
				<port id="1" precision="FP32">
					<dim>-1</dim>
					<dim>-1</dim>
					<dim>768</dim>
				</port>
				<port id="2" precision="FP32">
					<dim>-1</dim>
					<dim>-1</dim>
					<dim>768</dim>
				</port>
			</output>
		</layer>
		<layer id="413" name="MatMul_1161" type="FullyConnected">
			<data execOrder="793" execTimeMcs="78616" originalLayersNames="MatMul_1161" outputLayouts="bfyx" outputPrecisions="FP32" primitiveType="fully_connected_gpu_bfyx_ref__f32" runtimePrecision="FP32" />
			<input>
				<port id="0" precision="FP32">
					<dim>-1</dim>
					<dim>-1</dim>
					<dim>768</dim>
				</port>
			</input>
			<output>
				<port id="1" precision="FP32">
					<dim>-1</dim>
					<dim>-1</dim>
					<dim>3072</dim>
				</port>
			</output>
		</layer>
		<layer id="414" name="Add_1162" type="Eltwise">
			<data execOrder="794" execTimeMcs="166" originalLayersNames="Add_1162,Mul_1170" outputLayouts="bfyx" outputPrecisions="FP32" primitiveType="generic_eltwise_ref__f32" runtimePrecision="FP32" />
			<input>
				<port id="0" precision="FP32">
					<dim>-1</dim>
					<dim>-1</dim>
					<dim>3072</dim>
				</port>
			</input>
			<output>
				<port id="1" precision="FP32">
					<dim>-1</dim>
					<dim>-1</dim>
					<dim>3072</dim>
				</port>
			</output>
		</layer>
		<layer id="415" name="MatMul_1171" type="FullyConnected">
			<data execOrder="795" execTimeMcs="78206" originalLayersNames="MatMul_1171" outputLayouts="bfyx" outputPrecisions="FP32" primitiveType="fully_connected_gpu_bfyx_ref__f32" runtimePrecision="FP32" />
			<input>
				<port id="0" precision="FP32">
					<dim>-1</dim>
					<dim>-1</dim>
					<dim>3072</dim>
				</port>
			</input>
			<output>
				<port id="1" precision="FP32">
					<dim>-1</dim>
					<dim>-1</dim>
					<dim>768</dim>
				</port>
			</output>
		</layer>
		<layer id="416" name="Add_1172" type="Eltwise">
			<data execOrder="796" execTimeMcs="36" originalLayersNames="Add_1172,Add_1173" outputLayouts="bfyx" outputPrecisions="FP32" primitiveType="generic_eltwise_ref__f32" runtimePrecision="FP32" />
			<input>
				<port id="0" precision="FP32">
					<dim>-1</dim>
					<dim>-1</dim>
					<dim>768</dim>
				</port>
				<port id="1" precision="FP32">
					<dim>-1</dim>
					<dim>-1</dim>
					<dim>768</dim>
				</port>
			</input>
			<output>
				<port id="2" precision="FP32">
					<dim>-1</dim>
					<dim>-1</dim>
					<dim>768</dim>
				</port>
			</output>
		</layer>
		<layer id="417" name="Div_1182" type="MVN">
			<data execOrder="797" execTimeMcs="97" originalLayersNames="Div_1182" outputLayouts="bfyx" outputPrecisions="FP32" primitiveType="mvn_gpu_ref__f32" runtimePrecision="FP32" />
			<input>
				<port id="0" precision="FP32">
					<dim>-1</dim>
					<dim>-1</dim>
					<dim>768</dim>
				</port>
			</input>
			<output>
				<port id="1" precision="FP32">
					<dim>-1</dim>
					<dim>-1</dim>
					<dim>768</dim>
				</port>
			</output>
		</layer>
		<layer id="418" name="Mul_1183" type="Eltwise">
			<data execOrder="798" execTimeMcs="20" originalLayersNames="Mul_1183,Add_1184" outputLayouts="bfyx" outputPrecisions="FP32" primitiveType="generic_eltwise_ref__f32" runtimePrecision="FP32" />
			<input>
				<port id="0" precision="FP32">
					<dim>-1</dim>
					<dim>-1</dim>
					<dim>768</dim>
				</port>
			</input>
			<output>
				<port id="1" precision="FP32">
					<dim>-1</dim>
					<dim>-1</dim>
					<dim>768</dim>
				</port>
			</output>
		</layer>
		<layer id="419" name="Gather_19830" type="Gather">
			<data execOrder="799" execTimeMcs="7" originalLayersNames="Gather_19830" outputLayouts="bfyx" outputPrecisions="FP32" primitiveType="gather_ref__f32" runtimePrecision="FP32" />
			<input>
				<port id="0" precision="FP32">
					<dim>-1</dim>
					<dim>-1</dim>
					<dim>768</dim>
				</port>
			</input>
			<output>
				<port id="1" precision="FP32">
					<dim>-1</dim>
					<dim>1</dim>
					<dim>768</dim>
				</port>
			</output>
		</layer>
		<layer id="420" name="Gather_11862159" type="Reshape">
			<data execOrder="800" execTimeMcs="not_executed" originalLayersNames="Gather_11862159" outputLayouts="bfyx" outputPrecisions="FP32" primitiveType="undef" runtimePrecision="FP32" />
			<input>
				<port id="0" precision="FP32">
					<dim>-1</dim>
					<dim>1</dim>
					<dim>768</dim>
				</port>
			</input>
			<output>
				<port id="1" precision="FP32">
					<dim>-1</dim>
					<dim>768</dim>
				</port>
			</output>
		</layer>
		<layer id="421" name="Gemm_1187/WithoutBiases" type="FullyConnected">
			<data execOrder="801" execTimeMcs="483" originalLayersNames="Gemm_1187/WithoutBiases" outputLayouts="bfyx" outputPrecisions="FP32" primitiveType="fully_connected_gpu_bfyx_ref__f32" runtimePrecision="FP32" />
			<input>
				<port id="0" precision="FP32">
					<dim>-1</dim>
					<dim>768</dim>
				</port>
			</input>
			<output>
				<port id="1" precision="FP32">
					<dim>-1</dim>
					<dim>768</dim>
				</port>
			</output>
		</layer>
		<layer id="422" name="Gemm_1187" type="Eltwise">
			<data execOrder="802" execTimeMcs="6" originalLayersNames="Gemm_1187,Tanh_1188" outputLayouts="bfyx" outputPrecisions="FP32" primitiveType="generic_eltwise_ref__f32" runtimePrecision="FP32" />
			<input>
				<port id="0" precision="FP32">
					<dim>-1</dim>
					<dim>768</dim>
				</port>
			</input>
			<output>
				<port id="1" precision="FP32">
					<dim>-1</dim>
					<dim>768</dim>
				</port>
			</output>
		</layer>
		<layer id="423" name="Gemm_1189/WithoutBiases" type="FullyConnected">
			<data execOrder="803" execTimeMcs="48" originalLayersNames="Gemm_1189/WithoutBiases" outputLayouts="bfyx" outputPrecisions="FP32" primitiveType="fully_connected_gpu_bfyx_ref__f32" runtimePrecision="FP32" />
			<input>
				<port id="0" precision="FP32">
					<dim>-1</dim>
					<dim>768</dim>
				</port>
			</input>
			<output>
				<port id="1" precision="FP32">
					<dim>-1</dim>
					<dim>3</dim>
				</port>
			</output>
		</layer>
		<layer id="424" name="last_hidden_state" type="Eltwise">
			<data execOrder="804" execTimeMcs="3" originalLayersNames="last_hidden_state" outputLayouts="bfyx" outputPrecisions="FP32" primitiveType="generic_eltwise_ref__f32" runtimePrecision="FP32" />
			<input>
				<port id="0" precision="FP32">
					<dim>-1</dim>
					<dim>3</dim>
				</port>
			</input>
			<output>
				<port id="1" precision="FP32">
					<dim>-1</dim>
					<dim>3</dim>
				</port>
			</output>
		</layer>
		<layer id="425" name="last_hidden_state/sink_port_0" type="Reorder">
			<data execOrder="805" execTimeMcs="1" originalLayersNames="last_hidden_state/sink_port_0" outputLayouts="bfyx" outputPrecisions="FP32" primitiveType="reorder_data__f32" runtimePrecision="FP32" />
			<input>
				<port id="0" precision="FP32">
					<dim>-1</dim>
					<dim>3</dim>
				</port>
			</input>
			<output>
				<port id="1" precision="FP32">
					<dim>-1</dim>
					<dim>3</dim>
				</port>
			</output>
		</layer>
		<layer id="426" name="last_hidden_state/sink_port_0_result" type="Result">
			<data execOrder="805" execTimeMcs="1" originalLayersNames="last_hidden_state/sink_port_0" outputLayouts="bfyx" outputPrecisions="FP32" primitiveType="reorder_data__f32" runtimePrecision="FP32" />
			<input>
				<port id="0" precision="FP32">
					<dim>-1</dim>
					<dim>3</dim>
				</port>
			</input>
		</layer>
	</layers>
	<edges>
		<edge from-layer="0" from-port="0" to-layer="27" to-port="0" />
		<edge from-layer="1" from-port="0" to-layer="2" to-port="0" />
		<edge from-layer="2" from-port="1" to-layer="3" to-port="0" />
		<edge from-layer="2" from-port="1" to-layer="11" to-port="0" />
		<edge from-layer="2" from-port="1" to-layer="10" to-port="0" />
		<edge from-layer="3" from-port="1" to-layer="4" to-port="0" />
		<edge from-layer="3" from-port="1" to-layer="7" to-port="0" />
		<edge from-layer="3" from-port="1" to-layer="8" to-port="1" />
		<edge from-layer="4" from-port="1" to-layer="5" to-port="0" />
		<edge from-layer="5" from-port="1" to-layer="6" to-port="0" />
		<edge from-layer="6" from-port="1" to-layer="9" to-port="0" />
		<edge from-layer="7" from-port="1" to-layer="8" to-port="0" />
		<edge from-layer="8" from-port="2" to-layer="9" to-port="1" />
		<edge from-layer="9" from-port="2" to-layer="16" to-port="0" />
		<edge from-layer="10" from-port="1" to-layer="16" to-port="1" />
		<edge from-layer="11" from-port="1" to-layer="12" to-port="0" />
		<edge from-layer="12" from-port="1" to-layer="13" to-port="0" />
		<edge from-layer="12" from-port="1" to-layer="14" to-port="1" />
		<edge from-layer="13" from-port="1" to-layer="14" to-port="0" />
		<edge from-layer="14" from-port="2" to-layer="15" to-port="0" />
		<edge from-layer="15" from-port="1" to-layer="16" to-port="2" />
		<edge from-layer="16" from-port="3" to-layer="17" to-port="0" />
		<edge from-layer="17" from-port="1" to-layer="18" to-port="0" />
		<edge from-layer="18" from-port="1" to-layer="39" to-port="0" />
		<edge from-layer="18" from-port="1" to-layer="47" to-port="1" />
		<edge from-layer="18" from-port="1" to-layer="23" to-port="0" />
		<edge from-layer="18" from-port="1" to-layer="19" to-port="0" />
		<edge from-layer="19" from-port="1" to-layer="20" to-port="0" />
		<edge from-layer="20" from-port="1" to-layer="21" to-port="0" />
		<edge from-layer="21" from-port="1" to-layer="22" to-port="0" />
		<edge from-layer="22" from-port="1" to-layer="31" to-port="0" />
		<edge from-layer="23" from-port="1" to-layer="24" to-port="0" />
		<edge from-layer="24" from-port="1" to-layer="25" to-port="0" />
		<edge from-layer="25" from-port="1" to-layer="26" to-port="0" />
		<edge from-layer="26" from-port="1" to-layer="31" to-port="1" />
		<edge from-layer="27" from-port="1" to-layer="28" to-port="0" />
		<edge from-layer="28" from-port="1" to-layer="29" to-port="0" />
		<edge from-layer="29" from-port="1" to-layer="30" to-port="0" />
		<edge from-layer="30" from-port="1" to-layer="64" to-port="2" />
		<edge from-layer="30" from-port="1" to-layer="97" to-port="2" />
		<edge from-layer="30" from-port="1" to-layer="130" to-port="2" />
		<edge from-layer="30" from-port="1" to-layer="229" to-port="2" />
		<edge from-layer="30" from-port="1" to-layer="163" to-port="2" />
		<edge from-layer="30" from-port="1" to-layer="196" to-port="2" />
		<edge from-layer="30" from-port="1" to-layer="394" to-port="2" />
		<edge from-layer="30" from-port="1" to-layer="361" to-port="2" />
		<edge from-layer="30" from-port="1" to-layer="328" to-port="2" />
		<edge from-layer="30" from-port="1" to-layer="295" to-port="2" />
		<edge from-layer="30" from-port="1" to-layer="262" to-port="2" />
		<edge from-layer="30" from-port="1" to-layer="31" to-port="2" />
		<edge from-layer="31" from-port="3" to-layer="32" to-port="0" />
		<edge from-layer="31" from-port="3" to-layer="36" to-port="0" />
		<edge from-layer="32" from-port="1" to-layer="33" to-port="0" />
		<edge from-layer="32" from-port="1" to-layer="38" to-port="1" />
		<edge from-layer="33" from-port="1" to-layer="34" to-port="0" />
		<edge from-layer="34" from-port="1" to-layer="35" to-port="0" />
		<edge from-layer="35" from-port="1" to-layer="36" to-port="1" />
		<edge from-layer="36" from-port="2" to-layer="37" to-port="0" />
		<edge from-layer="37" from-port="1" to-layer="38" to-port="0" />
		<edge from-layer="38" from-port="2" to-layer="43" to-port="0" />
		<edge from-layer="39" from-port="1" to-layer="40" to-port="0" />
		<edge from-layer="40" from-port="1" to-layer="41" to-port="0" />
		<edge from-layer="41" from-port="1" to-layer="42" to-port="0" />
		<edge from-layer="42" from-port="1" to-layer="43" to-port="1" />
		<edge from-layer="43" from-port="2" to-layer="44" to-port="0" />
		<edge from-layer="44" from-port="1" to-layer="45" to-port="0" />
		<edge from-layer="45" from-port="1" to-layer="46" to-port="0" />
		<edge from-layer="46" from-port="1" to-layer="47" to-port="0" />
		<edge from-layer="47" from-port="2" to-layer="48" to-port="0" />
		<edge from-layer="48" from-port="1" to-layer="49" to-port="0" />
		<edge from-layer="49" from-port="1" to-layer="50" to-port="0" />
		<edge from-layer="49" from-port="1" to-layer="53" to-port="1" />
		<edge from-layer="50" from-port="1" to-layer="51" to-port="0" />
		<edge from-layer="51" from-port="1" to-layer="52" to-port="0" />
		<edge from-layer="52" from-port="1" to-layer="53" to-port="0" />
		<edge from-layer="53" from-port="2" to-layer="54" to-port="0" />
		<edge from-layer="54" from-port="1" to-layer="55" to-port="0" />
		<edge from-layer="55" from-port="1" to-layer="60" to-port="0" />
		<edge from-layer="55" from-port="1" to-layer="80" to-port="1" />
		<edge from-layer="55" from-port="1" to-layer="56" to-port="0" />
		<edge from-layer="55" from-port="1" to-layer="72" to-port="0" />
		<edge from-layer="56" from-port="1" to-layer="57" to-port="0" />
		<edge from-layer="57" from-port="1" to-layer="58" to-port="0" />
		<edge from-layer="58" from-port="1" to-layer="59" to-port="0" />
		<edge from-layer="59" from-port="1" to-layer="64" to-port="0" />
		<edge from-layer="60" from-port="1" to-layer="61" to-port="0" />
		<edge from-layer="61" from-port="1" to-layer="62" to-port="0" />
		<edge from-layer="62" from-port="1" to-layer="63" to-port="0" />
		<edge from-layer="63" from-port="1" to-layer="64" to-port="1" />
		<edge from-layer="64" from-port="3" to-layer="69" to-port="0" />
		<edge from-layer="64" from-port="3" to-layer="65" to-port="0" />
		<edge from-layer="65" from-port="1" to-layer="71" to-port="1" />
		<edge from-layer="65" from-port="1" to-layer="66" to-port="0" />
		<edge from-layer="66" from-port="1" to-layer="67" to-port="0" />
		<edge from-layer="67" from-port="1" to-layer="68" to-port="0" />
		<edge from-layer="68" from-port="1" to-layer="69" to-port="1" />
		<edge from-layer="69" from-port="2" to-layer="70" to-port="0" />
		<edge from-layer="70" from-port="1" to-layer="71" to-port="0" />
		<edge from-layer="71" from-port="2" to-layer="76" to-port="0" />
		<edge from-layer="72" from-port="1" to-layer="73" to-port="0" />
		<edge from-layer="73" from-port="1" to-layer="74" to-port="0" />
		<edge from-layer="74" from-port="1" to-layer="75" to-port="0" />
		<edge from-layer="75" from-port="1" to-layer="76" to-port="1" />
		<edge from-layer="76" from-port="2" to-layer="77" to-port="0" />
		<edge from-layer="77" from-port="1" to-layer="78" to-port="0" />
		<edge from-layer="78" from-port="1" to-layer="79" to-port="0" />
		<edge from-layer="79" from-port="1" to-layer="80" to-port="0" />
		<edge from-layer="80" from-port="2" to-layer="81" to-port="0" />
		<edge from-layer="81" from-port="1" to-layer="82" to-port="0" />
		<edge from-layer="82" from-port="1" to-layer="83" to-port="0" />
		<edge from-layer="82" from-port="1" to-layer="86" to-port="1" />
		<edge from-layer="83" from-port="1" to-layer="84" to-port="0" />
		<edge from-layer="84" from-port="1" to-layer="85" to-port="0" />
		<edge from-layer="85" from-port="1" to-layer="86" to-port="0" />
		<edge from-layer="86" from-port="2" to-layer="87" to-port="0" />
		<edge from-layer="87" from-port="1" to-layer="88" to-port="0" />
		<edge from-layer="88" from-port="1" to-layer="113" to-port="1" />
		<edge from-layer="88" from-port="1" to-layer="89" to-port="0" />
		<edge from-layer="88" from-port="1" to-layer="105" to-port="0" />
		<edge from-layer="88" from-port="1" to-layer="93" to-port="0" />
		<edge from-layer="89" from-port="1" to-layer="90" to-port="0" />
		<edge from-layer="90" from-port="1" to-layer="91" to-port="0" />
		<edge from-layer="91" from-port="1" to-layer="92" to-port="0" />
		<edge from-layer="92" from-port="1" to-layer="97" to-port="0" />
		<edge from-layer="93" from-port="1" to-layer="94" to-port="0" />
		<edge from-layer="94" from-port="1" to-layer="95" to-port="0" />
		<edge from-layer="95" from-port="1" to-layer="96" to-port="0" />
		<edge from-layer="96" from-port="1" to-layer="97" to-port="1" />
		<edge from-layer="97" from-port="3" to-layer="98" to-port="0" />
		<edge from-layer="97" from-port="3" to-layer="102" to-port="0" />
		<edge from-layer="98" from-port="1" to-layer="104" to-port="1" />
		<edge from-layer="98" from-port="1" to-layer="99" to-port="0" />
		<edge from-layer="99" from-port="1" to-layer="100" to-port="0" />
		<edge from-layer="100" from-port="1" to-layer="101" to-port="0" />
		<edge from-layer="101" from-port="1" to-layer="102" to-port="1" />
		<edge from-layer="102" from-port="2" to-layer="103" to-port="0" />
		<edge from-layer="103" from-port="1" to-layer="104" to-port="0" />
		<edge from-layer="104" from-port="2" to-layer="109" to-port="0" />
		<edge from-layer="105" from-port="1" to-layer="106" to-port="0" />
		<edge from-layer="106" from-port="1" to-layer="107" to-port="0" />
		<edge from-layer="107" from-port="1" to-layer="108" to-port="0" />
		<edge from-layer="108" from-port="1" to-layer="109" to-port="1" />
		<edge from-layer="109" from-port="2" to-layer="110" to-port="0" />
		<edge from-layer="110" from-port="1" to-layer="111" to-port="0" />
		<edge from-layer="111" from-port="1" to-layer="112" to-port="0" />
		<edge from-layer="112" from-port="1" to-layer="113" to-port="0" />
		<edge from-layer="113" from-port="2" to-layer="114" to-port="0" />
		<edge from-layer="114" from-port="1" to-layer="115" to-port="0" />
		<edge from-layer="115" from-port="1" to-layer="116" to-port="0" />
		<edge from-layer="115" from-port="1" to-layer="119" to-port="1" />
		<edge from-layer="116" from-port="1" to-layer="117" to-port="0" />
		<edge from-layer="117" from-port="1" to-layer="118" to-port="0" />
		<edge from-layer="118" from-port="1" to-layer="119" to-port="0" />
		<edge from-layer="119" from-port="2" to-layer="120" to-port="0" />
		<edge from-layer="120" from-port="1" to-layer="121" to-port="0" />
		<edge from-layer="121" from-port="1" to-layer="138" to-port="0" />
		<edge from-layer="121" from-port="1" to-layer="146" to-port="1" />
		<edge from-layer="121" from-port="1" to-layer="122" to-port="0" />
		<edge from-layer="121" from-port="1" to-layer="126" to-port="0" />
		<edge from-layer="122" from-port="1" to-layer="123" to-port="0" />
		<edge from-layer="123" from-port="1" to-layer="124" to-port="0" />
		<edge from-layer="124" from-port="1" to-layer="125" to-port="0" />
		<edge from-layer="125" from-port="1" to-layer="130" to-port="0" />
		<edge from-layer="126" from-port="1" to-layer="127" to-port="0" />
		<edge from-layer="127" from-port="1" to-layer="128" to-port="0" />
		<edge from-layer="128" from-port="1" to-layer="129" to-port="0" />
		<edge from-layer="129" from-port="1" to-layer="130" to-port="1" />
		<edge from-layer="130" from-port="3" to-layer="135" to-port="0" />
		<edge from-layer="130" from-port="3" to-layer="131" to-port="0" />
		<edge from-layer="131" from-port="1" to-layer="137" to-port="1" />
		<edge from-layer="131" from-port="1" to-layer="132" to-port="0" />
		<edge from-layer="132" from-port="1" to-layer="133" to-port="0" />
		<edge from-layer="133" from-port="1" to-layer="134" to-port="0" />
		<edge from-layer="134" from-port="1" to-layer="135" to-port="1" />
		<edge from-layer="135" from-port="2" to-layer="136" to-port="0" />
		<edge from-layer="136" from-port="1" to-layer="137" to-port="0" />
		<edge from-layer="137" from-port="2" to-layer="142" to-port="0" />
		<edge from-layer="138" from-port="1" to-layer="139" to-port="0" />
		<edge from-layer="139" from-port="1" to-layer="140" to-port="0" />
		<edge from-layer="140" from-port="1" to-layer="141" to-port="0" />
		<edge from-layer="141" from-port="1" to-layer="142" to-port="1" />
		<edge from-layer="142" from-port="2" to-layer="143" to-port="0" />
		<edge from-layer="143" from-port="1" to-layer="144" to-port="0" />
		<edge from-layer="144" from-port="1" to-layer="145" to-port="0" />
		<edge from-layer="145" from-port="1" to-layer="146" to-port="0" />
		<edge from-layer="146" from-port="2" to-layer="147" to-port="0" />
		<edge from-layer="147" from-port="1" to-layer="148" to-port="0" />
		<edge from-layer="148" from-port="1" to-layer="149" to-port="0" />
		<edge from-layer="148" from-port="1" to-layer="152" to-port="1" />
		<edge from-layer="149" from-port="1" to-layer="150" to-port="0" />
		<edge from-layer="150" from-port="1" to-layer="151" to-port="0" />
		<edge from-layer="151" from-port="1" to-layer="152" to-port="0" />
		<edge from-layer="152" from-port="2" to-layer="153" to-port="0" />
		<edge from-layer="153" from-port="1" to-layer="154" to-port="0" />
		<edge from-layer="154" from-port="1" to-layer="155" to-port="0" />
		<edge from-layer="154" from-port="1" to-layer="179" to-port="1" />
		<edge from-layer="154" from-port="1" to-layer="171" to-port="0" />
		<edge from-layer="154" from-port="1" to-layer="159" to-port="0" />
		<edge from-layer="155" from-port="1" to-layer="156" to-port="0" />
		<edge from-layer="156" from-port="1" to-layer="157" to-port="0" />
		<edge from-layer="157" from-port="1" to-layer="158" to-port="0" />
		<edge from-layer="158" from-port="1" to-layer="163" to-port="0" />
		<edge from-layer="159" from-port="1" to-layer="160" to-port="0" />
		<edge from-layer="160" from-port="1" to-layer="161" to-port="0" />
		<edge from-layer="161" from-port="1" to-layer="162" to-port="0" />
		<edge from-layer="162" from-port="1" to-layer="163" to-port="1" />
		<edge from-layer="163" from-port="3" to-layer="168" to-port="0" />
		<edge from-layer="163" from-port="3" to-layer="164" to-port="0" />
		<edge from-layer="164" from-port="1" to-layer="165" to-port="0" />
		<edge from-layer="164" from-port="1" to-layer="170" to-port="1" />
		<edge from-layer="165" from-port="1" to-layer="166" to-port="0" />
		<edge from-layer="166" from-port="1" to-layer="167" to-port="0" />
		<edge from-layer="167" from-port="1" to-layer="168" to-port="1" />
		<edge from-layer="168" from-port="2" to-layer="169" to-port="0" />
		<edge from-layer="169" from-port="1" to-layer="170" to-port="0" />
		<edge from-layer="170" from-port="2" to-layer="175" to-port="0" />
		<edge from-layer="171" from-port="1" to-layer="172" to-port="0" />
		<edge from-layer="172" from-port="1" to-layer="173" to-port="0" />
		<edge from-layer="173" from-port="1" to-layer="174" to-port="0" />
		<edge from-layer="174" from-port="1" to-layer="175" to-port="1" />
		<edge from-layer="175" from-port="2" to-layer="176" to-port="0" />
		<edge from-layer="176" from-port="1" to-layer="177" to-port="0" />
		<edge from-layer="177" from-port="1" to-layer="178" to-port="0" />
		<edge from-layer="178" from-port="1" to-layer="179" to-port="0" />
		<edge from-layer="179" from-port="2" to-layer="180" to-port="0" />
		<edge from-layer="180" from-port="1" to-layer="181" to-port="0" />
		<edge from-layer="181" from-port="1" to-layer="182" to-port="0" />
		<edge from-layer="181" from-port="1" to-layer="185" to-port="1" />
		<edge from-layer="182" from-port="1" to-layer="183" to-port="0" />
		<edge from-layer="183" from-port="1" to-layer="184" to-port="0" />
		<edge from-layer="184" from-port="1" to-layer="185" to-port="0" />
		<edge from-layer="185" from-port="2" to-layer="186" to-port="0" />
		<edge from-layer="186" from-port="1" to-layer="187" to-port="0" />
		<edge from-layer="187" from-port="1" to-layer="212" to-port="1" />
		<edge from-layer="187" from-port="1" to-layer="204" to-port="0" />
		<edge from-layer="187" from-port="1" to-layer="192" to-port="0" />
		<edge from-layer="187" from-port="1" to-layer="188" to-port="0" />
		<edge from-layer="188" from-port="1" to-layer="189" to-port="0" />
		<edge from-layer="189" from-port="1" to-layer="190" to-port="0" />
		<edge from-layer="190" from-port="1" to-layer="191" to-port="0" />
		<edge from-layer="191" from-port="1" to-layer="196" to-port="0" />
		<edge from-layer="192" from-port="1" to-layer="193" to-port="0" />
		<edge from-layer="193" from-port="1" to-layer="194" to-port="0" />
		<edge from-layer="194" from-port="1" to-layer="195" to-port="0" />
		<edge from-layer="195" from-port="1" to-layer="196" to-port="1" />
		<edge from-layer="196" from-port="3" to-layer="197" to-port="0" />
		<edge from-layer="196" from-port="3" to-layer="201" to-port="0" />
		<edge from-layer="197" from-port="1" to-layer="203" to-port="1" />
		<edge from-layer="197" from-port="1" to-layer="198" to-port="0" />
		<edge from-layer="198" from-port="1" to-layer="199" to-port="0" />
		<edge from-layer="199" from-port="1" to-layer="200" to-port="0" />
		<edge from-layer="200" from-port="1" to-layer="201" to-port="1" />
		<edge from-layer="201" from-port="2" to-layer="202" to-port="0" />
		<edge from-layer="202" from-port="1" to-layer="203" to-port="0" />
		<edge from-layer="203" from-port="2" to-layer="208" to-port="0" />
		<edge from-layer="204" from-port="1" to-layer="205" to-port="0" />
		<edge from-layer="205" from-port="1" to-layer="206" to-port="0" />
		<edge from-layer="206" from-port="1" to-layer="207" to-port="0" />
		<edge from-layer="207" from-port="1" to-layer="208" to-port="1" />
		<edge from-layer="208" from-port="2" to-layer="209" to-port="0" />
		<edge from-layer="209" from-port="1" to-layer="210" to-port="0" />
		<edge from-layer="210" from-port="1" to-layer="211" to-port="0" />
		<edge from-layer="211" from-port="1" to-layer="212" to-port="0" />
		<edge from-layer="212" from-port="2" to-layer="213" to-port="0" />
		<edge from-layer="213" from-port="1" to-layer="214" to-port="0" />
		<edge from-layer="214" from-port="1" to-layer="215" to-port="0" />
		<edge from-layer="214" from-port="1" to-layer="218" to-port="1" />
		<edge from-layer="215" from-port="1" to-layer="216" to-port="0" />
		<edge from-layer="216" from-port="1" to-layer="217" to-port="0" />
		<edge from-layer="217" from-port="1" to-layer="218" to-port="0" />
		<edge from-layer="218" from-port="2" to-layer="219" to-port="0" />
		<edge from-layer="219" from-port="1" to-layer="220" to-port="0" />
		<edge from-layer="220" from-port="1" to-layer="221" to-port="0" />
		<edge from-layer="220" from-port="1" to-layer="225" to-port="0" />
		<edge from-layer="220" from-port="1" to-layer="245" to-port="1" />
		<edge from-layer="220" from-port="1" to-layer="237" to-port="0" />
		<edge from-layer="221" from-port="1" to-layer="222" to-port="0" />
		<edge from-layer="222" from-port="1" to-layer="223" to-port="0" />
		<edge from-layer="223" from-port="1" to-layer="224" to-port="0" />
		<edge from-layer="224" from-port="1" to-layer="229" to-port="0" />
		<edge from-layer="225" from-port="1" to-layer="226" to-port="0" />
		<edge from-layer="226" from-port="1" to-layer="227" to-port="0" />
		<edge from-layer="227" from-port="1" to-layer="228" to-port="0" />
		<edge from-layer="228" from-port="1" to-layer="229" to-port="1" />
		<edge from-layer="229" from-port="3" to-layer="230" to-port="0" />
		<edge from-layer="229" from-port="3" to-layer="234" to-port="0" />
		<edge from-layer="230" from-port="1" to-layer="236" to-port="1" />
		<edge from-layer="230" from-port="1" to-layer="231" to-port="0" />
		<edge from-layer="231" from-port="1" to-layer="232" to-port="0" />
		<edge from-layer="232" from-port="1" to-layer="233" to-port="0" />
		<edge from-layer="233" from-port="1" to-layer="234" to-port="1" />
		<edge from-layer="234" from-port="2" to-layer="235" to-port="0" />
		<edge from-layer="235" from-port="1" to-layer="236" to-port="0" />
		<edge from-layer="236" from-port="2" to-layer="241" to-port="0" />
		<edge from-layer="237" from-port="1" to-layer="238" to-port="0" />
		<edge from-layer="238" from-port="1" to-layer="239" to-port="0" />
		<edge from-layer="239" from-port="1" to-layer="240" to-port="0" />
		<edge from-layer="240" from-port="1" to-layer="241" to-port="1" />
		<edge from-layer="241" from-port="2" to-layer="242" to-port="0" />
		<edge from-layer="242" from-port="1" to-layer="243" to-port="0" />
		<edge from-layer="243" from-port="1" to-layer="244" to-port="0" />
		<edge from-layer="244" from-port="1" to-layer="245" to-port="0" />
		<edge from-layer="245" from-port="2" to-layer="246" to-port="0" />
		<edge from-layer="246" from-port="1" to-layer="247" to-port="0" />
		<edge from-layer="247" from-port="1" to-layer="248" to-port="0" />
		<edge from-layer="247" from-port="1" to-layer="251" to-port="1" />
		<edge from-layer="248" from-port="1" to-layer="249" to-port="0" />
		<edge from-layer="249" from-port="1" to-layer="250" to-port="0" />
		<edge from-layer="250" from-port="1" to-layer="251" to-port="0" />
		<edge from-layer="251" from-port="2" to-layer="252" to-port="0" />
		<edge from-layer="252" from-port="1" to-layer="253" to-port="0" />
		<edge from-layer="253" from-port="1" to-layer="258" to-port="0" />
		<edge from-layer="253" from-port="1" to-layer="254" to-port="0" />
		<edge from-layer="253" from-port="1" to-layer="278" to-port="1" />
		<edge from-layer="253" from-port="1" to-layer="270" to-port="0" />
		<edge from-layer="254" from-port="1" to-layer="255" to-port="0" />
		<edge from-layer="255" from-port="1" to-layer="256" to-port="0" />
		<edge from-layer="256" from-port="1" to-layer="257" to-port="0" />
		<edge from-layer="257" from-port="1" to-layer="262" to-port="0" />
		<edge from-layer="258" from-port="1" to-layer="259" to-port="0" />
		<edge from-layer="259" from-port="1" to-layer="260" to-port="0" />
		<edge from-layer="260" from-port="1" to-layer="261" to-port="0" />
		<edge from-layer="261" from-port="1" to-layer="262" to-port="1" />
		<edge from-layer="262" from-port="3" to-layer="267" to-port="0" />
		<edge from-layer="262" from-port="3" to-layer="263" to-port="0" />
		<edge from-layer="263" from-port="1" to-layer="269" to-port="1" />
		<edge from-layer="263" from-port="1" to-layer="264" to-port="0" />
		<edge from-layer="264" from-port="1" to-layer="265" to-port="0" />
		<edge from-layer="265" from-port="1" to-layer="266" to-port="0" />
		<edge from-layer="266" from-port="1" to-layer="267" to-port="1" />
		<edge from-layer="267" from-port="2" to-layer="268" to-port="0" />
		<edge from-layer="268" from-port="1" to-layer="269" to-port="0" />
		<edge from-layer="269" from-port="2" to-layer="274" to-port="0" />
		<edge from-layer="270" from-port="1" to-layer="271" to-port="0" />
		<edge from-layer="271" from-port="1" to-layer="272" to-port="0" />
		<edge from-layer="272" from-port="1" to-layer="273" to-port="0" />
		<edge from-layer="273" from-port="1" to-layer="274" to-port="1" />
		<edge from-layer="274" from-port="2" to-layer="275" to-port="0" />
		<edge from-layer="275" from-port="1" to-layer="276" to-port="0" />
		<edge from-layer="276" from-port="1" to-layer="277" to-port="0" />
		<edge from-layer="277" from-port="1" to-layer="278" to-port="0" />
		<edge from-layer="278" from-port="2" to-layer="279" to-port="0" />
		<edge from-layer="279" from-port="1" to-layer="280" to-port="0" />
		<edge from-layer="280" from-port="1" to-layer="284" to-port="1" />
		<edge from-layer="280" from-port="1" to-layer="281" to-port="0" />
		<edge from-layer="281" from-port="1" to-layer="282" to-port="0" />
		<edge from-layer="282" from-port="1" to-layer="283" to-port="0" />
		<edge from-layer="283" from-port="1" to-layer="284" to-port="0" />
		<edge from-layer="284" from-port="2" to-layer="285" to-port="0" />
		<edge from-layer="285" from-port="1" to-layer="286" to-port="0" />
		<edge from-layer="286" from-port="1" to-layer="311" to-port="1" />
		<edge from-layer="286" from-port="1" to-layer="303" to-port="0" />
		<edge from-layer="286" from-port="1" to-layer="291" to-port="0" />
		<edge from-layer="286" from-port="1" to-layer="287" to-port="0" />
		<edge from-layer="287" from-port="1" to-layer="288" to-port="0" />
		<edge from-layer="288" from-port="1" to-layer="289" to-port="0" />
		<edge from-layer="289" from-port="1" to-layer="290" to-port="0" />
		<edge from-layer="290" from-port="1" to-layer="295" to-port="0" />
		<edge from-layer="291" from-port="1" to-layer="292" to-port="0" />
		<edge from-layer="292" from-port="1" to-layer="293" to-port="0" />
		<edge from-layer="293" from-port="1" to-layer="294" to-port="0" />
		<edge from-layer="294" from-port="1" to-layer="295" to-port="1" />
		<edge from-layer="295" from-port="3" to-layer="300" to-port="0" />
		<edge from-layer="295" from-port="3" to-layer="296" to-port="0" />
		<edge from-layer="296" from-port="1" to-layer="302" to-port="1" />
		<edge from-layer="296" from-port="1" to-layer="297" to-port="0" />
		<edge from-layer="297" from-port="1" to-layer="298" to-port="0" />
		<edge from-layer="298" from-port="1" to-layer="299" to-port="0" />
		<edge from-layer="299" from-port="1" to-layer="300" to-port="1" />
		<edge from-layer="300" from-port="2" to-layer="301" to-port="0" />
		<edge from-layer="301" from-port="1" to-layer="302" to-port="0" />
		<edge from-layer="302" from-port="2" to-layer="307" to-port="0" />
		<edge from-layer="303" from-port="1" to-layer="304" to-port="0" />
		<edge from-layer="304" from-port="1" to-layer="305" to-port="0" />
		<edge from-layer="305" from-port="1" to-layer="306" to-port="0" />
		<edge from-layer="306" from-port="1" to-layer="307" to-port="1" />
		<edge from-layer="307" from-port="2" to-layer="308" to-port="0" />
		<edge from-layer="308" from-port="1" to-layer="309" to-port="0" />
		<edge from-layer="309" from-port="1" to-layer="310" to-port="0" />
		<edge from-layer="310" from-port="1" to-layer="311" to-port="0" />
		<edge from-layer="311" from-port="2" to-layer="312" to-port="0" />
		<edge from-layer="312" from-port="1" to-layer="313" to-port="0" />
		<edge from-layer="313" from-port="1" to-layer="314" to-port="0" />
		<edge from-layer="313" from-port="1" to-layer="317" to-port="1" />
		<edge from-layer="314" from-port="1" to-layer="315" to-port="0" />
		<edge from-layer="315" from-port="1" to-layer="316" to-port="0" />
		<edge from-layer="316" from-port="1" to-layer="317" to-port="0" />
		<edge from-layer="317" from-port="2" to-layer="318" to-port="0" />
		<edge from-layer="318" from-port="1" to-layer="319" to-port="0" />
		<edge from-layer="319" from-port="1" to-layer="324" to-port="0" />
		<edge from-layer="319" from-port="1" to-layer="320" to-port="0" />
		<edge from-layer="319" from-port="1" to-layer="344" to-port="1" />
		<edge from-layer="319" from-port="1" to-layer="336" to-port="0" />
		<edge from-layer="320" from-port="1" to-layer="321" to-port="0" />
		<edge from-layer="321" from-port="1" to-layer="322" to-port="0" />
		<edge from-layer="322" from-port="1" to-layer="323" to-port="0" />
		<edge from-layer="323" from-port="1" to-layer="328" to-port="0" />
		<edge from-layer="324" from-port="1" to-layer="325" to-port="0" />
		<edge from-layer="325" from-port="1" to-layer="326" to-port="0" />
		<edge from-layer="326" from-port="1" to-layer="327" to-port="0" />
		<edge from-layer="327" from-port="1" to-layer="328" to-port="1" />
		<edge from-layer="328" from-port="3" to-layer="329" to-port="0" />
		<edge from-layer="328" from-port="3" to-layer="333" to-port="0" />
		<edge from-layer="329" from-port="1" to-layer="330" to-port="0" />
		<edge from-layer="329" from-port="1" to-layer="335" to-port="1" />
		<edge from-layer="330" from-port="1" to-layer="331" to-port="0" />
		<edge from-layer="331" from-port="1" to-layer="332" to-port="0" />
		<edge from-layer="332" from-port="1" to-layer="333" to-port="1" />
		<edge from-layer="333" from-port="2" to-layer="334" to-port="0" />
		<edge from-layer="334" from-port="1" to-layer="335" to-port="0" />
		<edge from-layer="335" from-port="2" to-layer="340" to-port="0" />
		<edge from-layer="336" from-port="1" to-layer="337" to-port="0" />
		<edge from-layer="337" from-port="1" to-layer="338" to-port="0" />
		<edge from-layer="338" from-port="1" to-layer="339" to-port="0" />
		<edge from-layer="339" from-port="1" to-layer="340" to-port="1" />
		<edge from-layer="340" from-port="2" to-layer="341" to-port="0" />
		<edge from-layer="341" from-port="1" to-layer="342" to-port="0" />
		<edge from-layer="342" from-port="1" to-layer="343" to-port="0" />
		<edge from-layer="343" from-port="1" to-layer="344" to-port="0" />
		<edge from-layer="344" from-port="2" to-layer="345" to-port="0" />
		<edge from-layer="345" from-port="1" to-layer="346" to-port="0" />
		<edge from-layer="346" from-port="1" to-layer="347" to-port="0" />
		<edge from-layer="346" from-port="1" to-layer="350" to-port="1" />
		<edge from-layer="347" from-port="1" to-layer="348" to-port="0" />
		<edge from-layer="348" from-port="1" to-layer="349" to-port="0" />
		<edge from-layer="349" from-port="1" to-layer="350" to-port="0" />
		<edge from-layer="350" from-port="2" to-layer="351" to-port="0" />
		<edge from-layer="351" from-port="1" to-layer="352" to-port="0" />
		<edge from-layer="352" from-port="1" to-layer="377" to-port="1" />
		<edge from-layer="352" from-port="1" to-layer="369" to-port="0" />
		<edge from-layer="352" from-port="1" to-layer="357" to-port="0" />
		<edge from-layer="352" from-port="1" to-layer="353" to-port="0" />
		<edge from-layer="353" from-port="1" to-layer="354" to-port="0" />
		<edge from-layer="354" from-port="1" to-layer="355" to-port="0" />
		<edge from-layer="355" from-port="1" to-layer="356" to-port="0" />
		<edge from-layer="356" from-port="1" to-layer="361" to-port="0" />
		<edge from-layer="357" from-port="1" to-layer="358" to-port="0" />
		<edge from-layer="358" from-port="1" to-layer="359" to-port="0" />
		<edge from-layer="359" from-port="1" to-layer="360" to-port="0" />
		<edge from-layer="360" from-port="1" to-layer="361" to-port="1" />
		<edge from-layer="361" from-port="3" to-layer="366" to-port="0" />
		<edge from-layer="361" from-port="3" to-layer="362" to-port="0" />
		<edge from-layer="362" from-port="1" to-layer="363" to-port="0" />
		<edge from-layer="362" from-port="1" to-layer="368" to-port="1" />
		<edge from-layer="363" from-port="1" to-layer="364" to-port="0" />
		<edge from-layer="364" from-port="1" to-layer="365" to-port="0" />
		<edge from-layer="365" from-port="1" to-layer="366" to-port="1" />
		<edge from-layer="366" from-port="2" to-layer="367" to-port="0" />
		<edge from-layer="367" from-port="1" to-layer="368" to-port="0" />
		<edge from-layer="368" from-port="2" to-layer="373" to-port="0" />
		<edge from-layer="369" from-port="1" to-layer="370" to-port="0" />
		<edge from-layer="370" from-port="1" to-layer="371" to-port="0" />
		<edge from-layer="371" from-port="1" to-layer="372" to-port="0" />
		<edge from-layer="372" from-port="1" to-layer="373" to-port="1" />
		<edge from-layer="373" from-port="2" to-layer="374" to-port="0" />
		<edge from-layer="374" from-port="1" to-layer="375" to-port="0" />
		<edge from-layer="375" from-port="1" to-layer="376" to-port="0" />
		<edge from-layer="376" from-port="1" to-layer="377" to-port="0" />
		<edge from-layer="377" from-port="2" to-layer="378" to-port="0" />
		<edge from-layer="378" from-port="1" to-layer="379" to-port="0" />
		<edge from-layer="379" from-port="1" to-layer="380" to-port="0" />
		<edge from-layer="379" from-port="1" to-layer="383" to-port="1" />
		<edge from-layer="380" from-port="1" to-layer="381" to-port="0" />
		<edge from-layer="381" from-port="1" to-layer="382" to-port="0" />
		<edge from-layer="382" from-port="1" to-layer="383" to-port="0" />
		<edge from-layer="383" from-port="2" to-layer="384" to-port="0" />
		<edge from-layer="384" from-port="1" to-layer="385" to-port="0" />
		<edge from-layer="385" from-port="1" to-layer="402" to-port="0" />
		<edge from-layer="385" from-port="1" to-layer="410" to-port="1" />
		<edge from-layer="385" from-port="1" to-layer="390" to-port="0" />
		<edge from-layer="385" from-port="1" to-layer="386" to-port="0" />
		<edge from-layer="386" from-port="1" to-layer="387" to-port="0" />
		<edge from-layer="387" from-port="1" to-layer="388" to-port="0" />
		<edge from-layer="388" from-port="1" to-layer="389" to-port="0" />
		<edge from-layer="389" from-port="1" to-layer="394" to-port="0" />
		<edge from-layer="390" from-port="1" to-layer="391" to-port="0" />
		<edge from-layer="391" from-port="1" to-layer="392" to-port="0" />
		<edge from-layer="392" from-port="1" to-layer="393" to-port="0" />
		<edge from-layer="393" from-port="1" to-layer="394" to-port="1" />
		<edge from-layer="394" from-port="3" to-layer="395" to-port="0" />
		<edge from-layer="394" from-port="3" to-layer="399" to-port="0" />
		<edge from-layer="395" from-port="1" to-layer="401" to-port="1" />
		<edge from-layer="395" from-port="1" to-layer="396" to-port="0" />
		<edge from-layer="396" from-port="1" to-layer="397" to-port="0" />
		<edge from-layer="397" from-port="1" to-layer="398" to-port="0" />
		<edge from-layer="398" from-port="1" to-layer="399" to-port="1" />
		<edge from-layer="399" from-port="2" to-layer="400" to-port="0" />
		<edge from-layer="400" from-port="1" to-layer="401" to-port="0" />
		<edge from-layer="401" from-port="2" to-layer="406" to-port="0" />
		<edge from-layer="402" from-port="1" to-layer="403" to-port="0" />
		<edge from-layer="403" from-port="1" to-layer="404" to-port="0" />
		<edge from-layer="404" from-port="1" to-layer="405" to-port="0" />
		<edge from-layer="405" from-port="1" to-layer="406" to-port="1" />
		<edge from-layer="406" from-port="2" to-layer="407" to-port="0" />
		<edge from-layer="407" from-port="1" to-layer="408" to-port="0" />
		<edge from-layer="408" from-port="1" to-layer="409" to-port="0" />
		<edge from-layer="409" from-port="1" to-layer="410" to-port="0" />
		<edge from-layer="410" from-port="2" to-layer="411" to-port="0" />
		<edge from-layer="411" from-port="1" to-layer="412" to-port="0" />
		<edge from-layer="412" from-port="1" to-layer="413" to-port="0" />
		<edge from-layer="412" from-port="1" to-layer="416" to-port="1" />
		<edge from-layer="413" from-port="1" to-layer="414" to-port="0" />
		<edge from-layer="414" from-port="1" to-layer="415" to-port="0" />
		<edge from-layer="415" from-port="1" to-layer="416" to-port="0" />
		<edge from-layer="416" from-port="2" to-layer="417" to-port="0" />
		<edge from-layer="417" from-port="1" to-layer="418" to-port="0" />
		<edge from-layer="418" from-port="1" to-layer="419" to-port="0" />
		<edge from-layer="419" from-port="1" to-layer="420" to-port="0" />
		<edge from-layer="420" from-port="1" to-layer="421" to-port="0" />
		<edge from-layer="421" from-port="1" to-layer="422" to-port="0" />
		<edge from-layer="422" from-port="1" to-layer="423" to-port="0" />
		<edge from-layer="423" from-port="1" to-layer="424" to-port="0" />
		<edge from-layer="424" from-port="1" to-layer="425" to-port="0" />
		<edge from-layer="425" from-port="1" to-layer="426" to-port="0" />
	</edges>
</net>
